{
  "nodes": [
    {
      "op": "null", 
      "name": "data", 
      "attrs": {"__profiler_scope__": "<unk>:"}, 
      "inputs": []
    }, 
    {
      "op": "null", 
      "name": "resnetv1b_conv0_weight", 
      "attrs": {
        "__dtype__": "0", 
        "__lr_mult__": "1.0", 
        "__profiler_scope__": "resnetv1b:", 
        "__shape__": "(64, 3, 7, 7)", 
        "__storage_type__": "0", 
        "__wd_mult__": "1.0"
      }, 
      "inputs": []
    }, 
    {
      "op": "Convolution", 
      "name": "resnetv1b_conv0_fwd", 
      "attrs": {
        "__profiler_scope__": "resnetv1b:conv0:", 
        "dilate": "(1, 1)", 
        "kernel": "(7, 7)", 
        "layout": "NCHW", 
        "no_bias": "True", 
        "num_filter": "64", 
        "num_group": "1", 
        "pad": "(3, 3)", 
        "stride": "(2, 2)"
      }, 
      "inputs": [[0, 0, 0], [1, 0, 0]]
    }, 
    {
      "op": "null", 
      "name": "resnetv1b_batchnorm0_gamma", 
      "attrs": {
        "__dtype__": "0", 
        "__init__": "ones", 
        "__lr_mult__": "1.0", 
        "__profiler_scope__": "resnetv1b:", 
        "__shape__": "(64,)", 
        "__storage_type__": "0", 
        "__wd_mult__": "1.0"
      }, 
      "inputs": []
    }, 
    {
      "op": "null", 
      "name": "resnetv1b_batchnorm0_beta", 
      "attrs": {
        "__dtype__": "0", 
        "__init__": "zeros", 
        "__lr_mult__": "1.0", 
        "__profiler_scope__": "resnetv1b:", 
        "__shape__": "(64,)", 
        "__storage_type__": "0", 
        "__wd_mult__": "1.0"
      }, 
      "inputs": []
    }, 
    {
      "op": "null", 
      "name": "resnetv1b_batchnorm0_running_mean", 
      "attrs": {
        "__dtype__": "0", 
        "__init__": "zeros", 
        "__lr_mult__": "1.0", 
        "__profiler_scope__": "resnetv1b:", 
        "__shape__": "(64,)", 
        "__storage_type__": "0", 
        "__wd_mult__": "1.0"
      }, 
      "inputs": []
    }, 
    {
      "op": "null", 
      "name": "resnetv1b_batchnorm0_running_var", 
      "attrs": {
        "__dtype__": "0", 
        "__init__": "ones", 
        "__lr_mult__": "1.0", 
        "__profiler_scope__": "resnetv1b:", 
        "__shape__": "(64,)", 
        "__storage_type__": "0", 
        "__wd_mult__": "1.0"
      }, 
      "inputs": []
    }, 
    {
      "op": "BatchNorm", 
      "name": "resnetv1b_batchnorm0_fwd", 
      "attrs": {
        "__profiler_scope__": "resnetv1b:batchnorm0:", 
        "axis": "1", 
        "eps": "1e-05", 
        "fix_gamma": "False", 
        "momentum": "0.9", 
        "use_global_stats": "False"
      }, 
      "inputs": [[2, 0, 0], [3, 0, 0], [4, 0, 0], [5, 0, 1], [6, 0, 1]]
    }, 
    {
      "op": "Activation", 
      "name": "resnetv1b_relu0_fwd", 
      "attrs": {
        "__profiler_scope__": "resnetv1b:relu0:", 
        "act_type": "relu"
      }, 
      "inputs": [[7, 0, 0]]
    }, 
    {
      "op": "Pooling", 
      "name": "resnetv1b_pool0_fwd", 
      "attrs": {
        "__profiler_scope__": "resnetv1b:pool0:", 
        "global_pool": "False", 
        "kernel": "(3, 3)", 
        "layout": "NCHW", 
        "pad": "(1, 1)", 
        "pool_type": "max", 
        "pooling_convention": "valid", 
        "stride": "(2, 2)"
      }, 
      "inputs": [[8, 0, 0]]
    }, 
    {
      "op": "null", 
      "name": "resnetv1b_layers1_conv0_weight", 
      "attrs": {
        "__dtype__": "0", 
        "__lr_mult__": "1.0", 
        "__profiler_scope__": "resnetv1b:layers1:basicblockv1b0:", 
        "__shape__": "(64, 64, 3, 3)", 
        "__storage_type__": "0", 
        "__wd_mult__": "1.0"
      }, 
      "inputs": []
    }, 
    {
      "op": "Convolution", 
      "name": "resnetv1b_layers1_conv0_fwd", 
      "attrs": {
        "__profiler_scope__": "resnetv1b:layers1:conv0:", 
        "dilate": "(1, 1)", 
        "kernel": "(3, 3)", 
        "layout": "NCHW", 
        "no_bias": "True", 
        "num_filter": "64", 
        "num_group": "1", 
        "pad": "(1, 1)", 
        "stride": "(1, 1)"
      }, 
      "inputs": [[9, 0, 0], [10, 0, 0]]
    }, 
    {
      "op": "null", 
      "name": "resnetv1b_layers1_batchnorm0_gamma", 
      "attrs": {
        "__dtype__": "0", 
        "__init__": "ones", 
        "__lr_mult__": "1.0", 
        "__profiler_scope__": "resnetv1b:layers1:basicblockv1b0:", 
        "__shape__": "(64,)", 
        "__storage_type__": "0", 
        "__wd_mult__": "1.0"
      }, 
      "inputs": []
    }, 
    {
      "op": "null", 
      "name": "resnetv1b_layers1_batchnorm0_beta", 
      "attrs": {
        "__dtype__": "0", 
        "__init__": "zeros", 
        "__lr_mult__": "1.0", 
        "__profiler_scope__": "resnetv1b:layers1:basicblockv1b0:", 
        "__shape__": "(64,)", 
        "__storage_type__": "0", 
        "__wd_mult__": "1.0"
      }, 
      "inputs": []
    }, 
    {
      "op": "null", 
      "name": "resnetv1b_layers1_batchnorm0_running_mean", 
      "attrs": {
        "__dtype__": "0", 
        "__init__": "zeros", 
        "__lr_mult__": "1.0", 
        "__profiler_scope__": "resnetv1b:layers1:basicblockv1b0:", 
        "__shape__": "(64,)", 
        "__storage_type__": "0", 
        "__wd_mult__": "1.0"
      }, 
      "inputs": []
    }, 
    {
      "op": "null", 
      "name": "resnetv1b_layers1_batchnorm0_running_var", 
      "attrs": {
        "__dtype__": "0", 
        "__init__": "ones", 
        "__lr_mult__": "1.0", 
        "__profiler_scope__": "resnetv1b:layers1:basicblockv1b0:", 
        "__shape__": "(64,)", 
        "__storage_type__": "0", 
        "__wd_mult__": "1.0"
      }, 
      "inputs": []
    }, 
    {
      "op": "BatchNorm", 
      "name": "resnetv1b_layers1_batchnorm0_fwd", 
      "attrs": {
        "__profiler_scope__": "resnetv1b:layers1:batchnorm0:", 
        "axis": "1", 
        "eps": "1e-05", 
        "fix_gamma": "False", 
        "momentum": "0.9", 
        "use_global_stats": "False"
      }, 
      "inputs": [[11, 0, 0], [12, 0, 0], [13, 0, 0], [14, 0, 1], [15, 0, 1]]
    }, 
    {
      "op": "Activation", 
      "name": "resnetv1b_layers1_relu0_fwd", 
      "attrs": {
        "__profiler_scope__": "resnetv1b:layers1:relu0:", 
        "act_type": "relu"
      }, 
      "inputs": [[16, 0, 0]]
    }, 
    {
      "op": "null", 
      "name": "resnetv1b_layers1_conv1_weight", 
      "attrs": {
        "__dtype__": "0", 
        "__lr_mult__": "1.0", 
        "__profiler_scope__": "resnetv1b:layers1:basicblockv1b0:", 
        "__shape__": "(64, 64, 3, 3)", 
        "__storage_type__": "0", 
        "__wd_mult__": "1.0"
      }, 
      "inputs": []
    }, 
    {
      "op": "Convolution", 
      "name": "resnetv1b_layers1_conv1_fwd", 
      "attrs": {
        "__profiler_scope__": "resnetv1b:layers1:conv1:", 
        "dilate": "(1, 1)", 
        "kernel": "(3, 3)", 
        "layout": "NCHW", 
        "no_bias": "True", 
        "num_filter": "64", 
        "num_group": "1", 
        "pad": "(1, 1)", 
        "stride": "(1, 1)"
      }, 
      "inputs": [[17, 0, 0], [18, 0, 0]]
    }, 
    {
      "op": "null", 
      "name": "resnetv1b_layers1_batchnorm1_gamma", 
      "attrs": {
        "__dtype__": "0", 
        "__init__": "ones", 
        "__lr_mult__": "1.0", 
        "__profiler_scope__": "resnetv1b:layers1:basicblockv1b0:", 
        "__shape__": "(64,)", 
        "__storage_type__": "0", 
        "__wd_mult__": "1.0"
      }, 
      "inputs": []
    }, 
    {
      "op": "null", 
      "name": "resnetv1b_layers1_batchnorm1_beta", 
      "attrs": {
        "__dtype__": "0", 
        "__init__": "zeros", 
        "__lr_mult__": "1.0", 
        "__profiler_scope__": "resnetv1b:layers1:basicblockv1b0:", 
        "__shape__": "(64,)", 
        "__storage_type__": "0", 
        "__wd_mult__": "1.0"
      }, 
      "inputs": []
    }, 
    {
      "op": "null", 
      "name": "resnetv1b_layers1_batchnorm1_running_mean", 
      "attrs": {
        "__dtype__": "0", 
        "__init__": "zeros", 
        "__lr_mult__": "1.0", 
        "__profiler_scope__": "resnetv1b:layers1:basicblockv1b0:", 
        "__shape__": "(64,)", 
        "__storage_type__": "0", 
        "__wd_mult__": "1.0"
      }, 
      "inputs": []
    }, 
    {
      "op": "null", 
      "name": "resnetv1b_layers1_batchnorm1_running_var", 
      "attrs": {
        "__dtype__": "0", 
        "__init__": "ones", 
        "__lr_mult__": "1.0", 
        "__profiler_scope__": "resnetv1b:layers1:basicblockv1b0:", 
        "__shape__": "(64,)", 
        "__storage_type__": "0", 
        "__wd_mult__": "1.0"
      }, 
      "inputs": []
    }, 
    {
      "op": "BatchNorm", 
      "name": "resnetv1b_layers1_batchnorm1_fwd", 
      "attrs": {
        "__profiler_scope__": "resnetv1b:layers1:batchnorm1:", 
        "axis": "1", 
        "eps": "1e-05", 
        "fix_gamma": "False", 
        "momentum": "0.9", 
        "use_global_stats": "False"
      }, 
      "inputs": [[19, 0, 0], [20, 0, 0], [21, 0, 0], [22, 0, 1], [23, 0, 1]]
    }, 
    {
      "op": "elemwise_add", 
      "name": "resnetv1b_layers1_basicblockv1b0__plus0", 
      "attrs": {"__profiler_scope__": "resnetv1b:layers1:basicblockv1b0:"}, 
      "inputs": [[24, 0, 0], [9, 0, 0]]
    }, 
    {
      "op": "Activation", 
      "name": "resnetv1b_layers1_relu1_fwd", 
      "attrs": {
        "__profiler_scope__": "resnetv1b:layers1:relu1:", 
        "act_type": "relu"
      }, 
      "inputs": [[25, 0, 0]]
    }, 
    {
      "op": "null", 
      "name": "resnetv1b_layers1_conv2_weight", 
      "attrs": {
        "__dtype__": "0", 
        "__lr_mult__": "1.0", 
        "__profiler_scope__": "resnetv1b:layers1:basicblockv1b1:", 
        "__shape__": "(64, 64, 3, 3)", 
        "__storage_type__": "0", 
        "__wd_mult__": "1.0"
      }, 
      "inputs": []
    }, 
    {
      "op": "Convolution", 
      "name": "resnetv1b_layers1_conv2_fwd", 
      "attrs": {
        "__profiler_scope__": "resnetv1b:layers1:conv2:", 
        "dilate": "(1, 1)", 
        "kernel": "(3, 3)", 
        "layout": "NCHW", 
        "no_bias": "True", 
        "num_filter": "64", 
        "num_group": "1", 
        "pad": "(1, 1)", 
        "stride": "(1, 1)"
      }, 
      "inputs": [[26, 0, 0], [27, 0, 0]]
    }, 
    {
      "op": "null", 
      "name": "resnetv1b_layers1_batchnorm2_gamma", 
      "attrs": {
        "__dtype__": "0", 
        "__init__": "ones", 
        "__lr_mult__": "1.0", 
        "__profiler_scope__": "resnetv1b:layers1:basicblockv1b1:", 
        "__shape__": "(64,)", 
        "__storage_type__": "0", 
        "__wd_mult__": "1.0"
      }, 
      "inputs": []
    }, 
    {
      "op": "null", 
      "name": "resnetv1b_layers1_batchnorm2_beta", 
      "attrs": {
        "__dtype__": "0", 
        "__init__": "zeros", 
        "__lr_mult__": "1.0", 
        "__profiler_scope__": "resnetv1b:layers1:basicblockv1b1:", 
        "__shape__": "(64,)", 
        "__storage_type__": "0", 
        "__wd_mult__": "1.0"
      }, 
      "inputs": []
    }, 
    {
      "op": "null", 
      "name": "resnetv1b_layers1_batchnorm2_running_mean", 
      "attrs": {
        "__dtype__": "0", 
        "__init__": "zeros", 
        "__lr_mult__": "1.0", 
        "__profiler_scope__": "resnetv1b:layers1:basicblockv1b1:", 
        "__shape__": "(64,)", 
        "__storage_type__": "0", 
        "__wd_mult__": "1.0"
      }, 
      "inputs": []
    }, 
    {
      "op": "null", 
      "name": "resnetv1b_layers1_batchnorm2_running_var", 
      "attrs": {
        "__dtype__": "0", 
        "__init__": "ones", 
        "__lr_mult__": "1.0", 
        "__profiler_scope__": "resnetv1b:layers1:basicblockv1b1:", 
        "__shape__": "(64,)", 
        "__storage_type__": "0", 
        "__wd_mult__": "1.0"
      }, 
      "inputs": []
    }, 
    {
      "op": "BatchNorm", 
      "name": "resnetv1b_layers1_batchnorm2_fwd", 
      "attrs": {
        "__profiler_scope__": "resnetv1b:layers1:batchnorm2:", 
        "axis": "1", 
        "eps": "1e-05", 
        "fix_gamma": "False", 
        "momentum": "0.9", 
        "use_global_stats": "False"
      }, 
      "inputs": [[28, 0, 0], [29, 0, 0], [30, 0, 0], [31, 0, 1], [32, 0, 1]]
    }, 
    {
      "op": "Activation", 
      "name": "resnetv1b_layers1_relu2_fwd", 
      "attrs": {
        "__profiler_scope__": "resnetv1b:layers1:relu2:", 
        "act_type": "relu"
      }, 
      "inputs": [[33, 0, 0]]
    }, 
    {
      "op": "null", 
      "name": "resnetv1b_layers1_conv3_weight", 
      "attrs": {
        "__dtype__": "0", 
        "__lr_mult__": "1.0", 
        "__profiler_scope__": "resnetv1b:layers1:basicblockv1b1:", 
        "__shape__": "(64, 64, 3, 3)", 
        "__storage_type__": "0", 
        "__wd_mult__": "1.0"
      }, 
      "inputs": []
    }, 
    {
      "op": "Convolution", 
      "name": "resnetv1b_layers1_conv3_fwd", 
      "attrs": {
        "__profiler_scope__": "resnetv1b:layers1:conv3:", 
        "dilate": "(1, 1)", 
        "kernel": "(3, 3)", 
        "layout": "NCHW", 
        "no_bias": "True", 
        "num_filter": "64", 
        "num_group": "1", 
        "pad": "(1, 1)", 
        "stride": "(1, 1)"
      }, 
      "inputs": [[34, 0, 0], [35, 0, 0]]
    }, 
    {
      "op": "null", 
      "name": "resnetv1b_layers1_batchnorm3_gamma", 
      "attrs": {
        "__dtype__": "0", 
        "__init__": "ones", 
        "__lr_mult__": "1.0", 
        "__profiler_scope__": "resnetv1b:layers1:basicblockv1b1:", 
        "__shape__": "(64,)", 
        "__storage_type__": "0", 
        "__wd_mult__": "1.0"
      }, 
      "inputs": []
    }, 
    {
      "op": "null", 
      "name": "resnetv1b_layers1_batchnorm3_beta", 
      "attrs": {
        "__dtype__": "0", 
        "__init__": "zeros", 
        "__lr_mult__": "1.0", 
        "__profiler_scope__": "resnetv1b:layers1:basicblockv1b1:", 
        "__shape__": "(64,)", 
        "__storage_type__": "0", 
        "__wd_mult__": "1.0"
      }, 
      "inputs": []
    }, 
    {
      "op": "null", 
      "name": "resnetv1b_layers1_batchnorm3_running_mean", 
      "attrs": {
        "__dtype__": "0", 
        "__init__": "zeros", 
        "__lr_mult__": "1.0", 
        "__profiler_scope__": "resnetv1b:layers1:basicblockv1b1:", 
        "__shape__": "(64,)", 
        "__storage_type__": "0", 
        "__wd_mult__": "1.0"
      }, 
      "inputs": []
    }, 
    {
      "op": "null", 
      "name": "resnetv1b_layers1_batchnorm3_running_var", 
      "attrs": {
        "__dtype__": "0", 
        "__init__": "ones", 
        "__lr_mult__": "1.0", 
        "__profiler_scope__": "resnetv1b:layers1:basicblockv1b1:", 
        "__shape__": "(64,)", 
        "__storage_type__": "0", 
        "__wd_mult__": "1.0"
      }, 
      "inputs": []
    }, 
    {
      "op": "BatchNorm", 
      "name": "resnetv1b_layers1_batchnorm3_fwd", 
      "attrs": {
        "__profiler_scope__": "resnetv1b:layers1:batchnorm3:", 
        "axis": "1", 
        "eps": "1e-05", 
        "fix_gamma": "False", 
        "momentum": "0.9", 
        "use_global_stats": "False"
      }, 
      "inputs": [[36, 0, 0], [37, 0, 0], [38, 0, 0], [39, 0, 1], [40, 0, 1]]
    }, 
    {
      "op": "elemwise_add", 
      "name": "resnetv1b_layers1_basicblockv1b1__plus0", 
      "attrs": {"__profiler_scope__": "resnetv1b:layers1:basicblockv1b1:"}, 
      "inputs": [[41, 0, 0], [26, 0, 0]]
    }, 
    {
      "op": "Activation", 
      "name": "resnetv1b_layers1_relu3_fwd", 
      "attrs": {
        "__profiler_scope__": "resnetv1b:layers1:relu3:", 
        "act_type": "relu"
      }, 
      "inputs": [[42, 0, 0]]
    }, 
    {
      "op": "null", 
      "name": "fusionfpn0_conv0_weight", 
      "attrs": {
        "__dtype__": "2", 
        "__lr_mult__": "1.0", 
        "__profiler_scope__": "fusionfpn0:", 
        "__shape__": "(64, 0, 1, 1)", 
        "__storage_type__": "0", 
        "__wd_mult__": "1.0"
      }, 
      "inputs": []
    }, 
    {
      "op": "Convolution", 
      "name": "fusionfpn0_conv0_fwd", 
      "attrs": {
        "__profiler_scope__": "fusionfpn0:conv0:", 
        "dilate": "(1, 1)", 
        "kernel": "(1, 1)", 
        "layout": "NCHW", 
        "no_bias": "True", 
        "num_filter": "64", 
        "num_group": "1", 
        "pad": "(0, 0)", 
        "stride": "(1, 1)"
      }, 
      "inputs": [[43, 0, 0], [44, 0, 0]]
    }, 
    {
      "op": "null", 
      "name": "fusionfpn0_batchnorm0_gamma", 
      "attrs": {
        "__dtype__": "0", 
        "__init__": "ones", 
        "__lr_mult__": "1.0", 
        "__profiler_scope__": "fusionfpn0:", 
        "__shape__": "(0,)", 
        "__storage_type__": "0", 
        "__wd_mult__": "1.0"
      }, 
      "inputs": []
    }, 
    {
      "op": "null", 
      "name": "fusionfpn0_batchnorm0_beta", 
      "attrs": {
        "__dtype__": "0", 
        "__init__": "zeros", 
        "__lr_mult__": "1.0", 
        "__profiler_scope__": "fusionfpn0:", 
        "__shape__": "(0,)", 
        "__storage_type__": "0", 
        "__wd_mult__": "1.0"
      }, 
      "inputs": []
    }, 
    {
      "op": "null", 
      "name": "fusionfpn0_batchnorm0_running_mean", 
      "attrs": {
        "__dtype__": "0", 
        "__init__": "zeros", 
        "__lr_mult__": "1.0", 
        "__profiler_scope__": "fusionfpn0:", 
        "__shape__": "(0,)", 
        "__storage_type__": "0", 
        "__wd_mult__": "1.0"
      }, 
      "inputs": []
    }, 
    {
      "op": "null", 
      "name": "fusionfpn0_batchnorm0_running_var", 
      "attrs": {
        "__dtype__": "0", 
        "__init__": "ones", 
        "__lr_mult__": "1.0", 
        "__profiler_scope__": "fusionfpn0:", 
        "__shape__": "(0,)", 
        "__storage_type__": "0", 
        "__wd_mult__": "1.0"
      }, 
      "inputs": []
    }, 
    {
      "op": "BatchNorm", 
      "name": "fusionfpn0_batchnorm0_fwd", 
      "attrs": {
        "__profiler_scope__": "fusionfpn0:batchnorm0:", 
        "axis": "1", 
        "eps": "1e-05", 
        "fix_gamma": "False", 
        "momentum": "0.9", 
        "use_global_stats": "False"
      }, 
      "inputs": [[45, 0, 0], [46, 0, 0], [47, 0, 0], [48, 0, 228], [49, 0, 228]]
    }, 
    {
      "op": "null", 
      "name": "fusionfpn0_w", 
      "attrs": {
        "__dtype__": "2", 
        "__init__": "[\"constant\", {\"value\": 1.0}]", 
        "__lr_mult__": "1.0", 
        "__profiler_scope__": "saccadenet0:", 
        "__shape__": "(4,)", 
        "__storage_type__": "0", 
        "__wd_mult__": "1.0"
      }, 
      "inputs": []
    }, 
    {
      "op": "Activation", 
      "name": "relu0_fwd", 
      "attrs": {
        "__profiler_scope__": "relu0:", 
        "act_type": "relu"
      }, 
      "inputs": [[51, 0, 0]]
    }, 
    {
      "op": "sum", 
      "name": "fusionfpn0_sum0", 
      "attrs": {
        "__profiler_scope__": "fusionfpn0:", 
        "axis": "0"
      }, 
      "inputs": [[52, 0, 0]]
    }, 
    {
      "op": "_plus_scalar", 
      "name": "fusionfpn0__plusscalar0", 
      "attrs": {
        "__profiler_scope__": "fusionfpn0:", 
        "scalar": "0.0001"
      }, 
      "inputs": [[53, 0, 0]]
    }, 
    {
      "op": "broadcast_div", 
      "name": "fusionfpn0_broadcast_div0", 
      "attrs": {"__profiler_scope__": "fusionfpn0:"}, 
      "inputs": [[52, 0, 0], [54, 0, 0]]
    }, 
    {
      "op": "SliceChannel", 
      "name": "fusionfpn0_split0", 
      "attrs": {
        "__profiler_scope__": "fusionfpn0:", 
        "axis": "0", 
        "num_outputs": "4"
      }, 
      "inputs": [[55, 0, 0]]
    }, 
    {
      "op": "broadcast_mul", 
      "name": "fusionfpn0_broadcast_mul0", 
      "attrs": {"__profiler_scope__": "fusionfpn0:"}, 
      "inputs": [[50, 0, 0], [56, 0, 0]]
    }, 
    {
      "op": "null", 
      "name": "resnetv1b_layers2_conv0_weight", 
      "attrs": {
        "__dtype__": "0", 
        "__lr_mult__": "1.0", 
        "__profiler_scope__": "resnetv1b:layers2:basicblockv1b0:", 
        "__shape__": "(128, 64, 3, 3)", 
        "__storage_type__": "0", 
        "__wd_mult__": "1.0"
      }, 
      "inputs": []
    }, 
    {
      "op": "Convolution", 
      "name": "resnetv1b_layers2_conv0_fwd", 
      "attrs": {
        "__profiler_scope__": "resnetv1b:layers2:conv0:", 
        "dilate": "(1, 1)", 
        "kernel": "(3, 3)", 
        "layout": "NCHW", 
        "no_bias": "True", 
        "num_filter": "128", 
        "num_group": "1", 
        "pad": "(1, 1)", 
        "stride": "(2, 2)"
      }, 
      "inputs": [[43, 0, 0], [58, 0, 0]]
    }, 
    {
      "op": "null", 
      "name": "resnetv1b_layers2_batchnorm0_gamma", 
      "attrs": {
        "__dtype__": "0", 
        "__init__": "ones", 
        "__lr_mult__": "1.0", 
        "__profiler_scope__": "resnetv1b:layers2:basicblockv1b0:", 
        "__shape__": "(128,)", 
        "__storage_type__": "0", 
        "__wd_mult__": "1.0"
      }, 
      "inputs": []
    }, 
    {
      "op": "null", 
      "name": "resnetv1b_layers2_batchnorm0_beta", 
      "attrs": {
        "__dtype__": "0", 
        "__init__": "zeros", 
        "__lr_mult__": "1.0", 
        "__profiler_scope__": "resnetv1b:layers2:basicblockv1b0:", 
        "__shape__": "(128,)", 
        "__storage_type__": "0", 
        "__wd_mult__": "1.0"
      }, 
      "inputs": []
    }, 
    {
      "op": "null", 
      "name": "resnetv1b_layers2_batchnorm0_running_mean", 
      "attrs": {
        "__dtype__": "0", 
        "__init__": "zeros", 
        "__lr_mult__": "1.0", 
        "__profiler_scope__": "resnetv1b:layers2:basicblockv1b0:", 
        "__shape__": "(128,)", 
        "__storage_type__": "0", 
        "__wd_mult__": "1.0"
      }, 
      "inputs": []
    }, 
    {
      "op": "null", 
      "name": "resnetv1b_layers2_batchnorm0_running_var", 
      "attrs": {
        "__dtype__": "0", 
        "__init__": "ones", 
        "__lr_mult__": "1.0", 
        "__profiler_scope__": "resnetv1b:layers2:basicblockv1b0:", 
        "__shape__": "(128,)", 
        "__storage_type__": "0", 
        "__wd_mult__": "1.0"
      }, 
      "inputs": []
    }, 
    {
      "op": "BatchNorm", 
      "name": "resnetv1b_layers2_batchnorm0_fwd", 
      "attrs": {
        "__profiler_scope__": "resnetv1b:layers2:batchnorm0:", 
        "axis": "1", 
        "eps": "1e-05", 
        "fix_gamma": "False", 
        "momentum": "0.9", 
        "use_global_stats": "False"
      }, 
      "inputs": [[59, 0, 0], [60, 0, 0], [61, 0, 0], [62, 0, 1], [63, 0, 1]]
    }, 
    {
      "op": "Activation", 
      "name": "resnetv1b_layers2_relu0_fwd", 
      "attrs": {
        "__profiler_scope__": "resnetv1b:layers2:relu0:", 
        "act_type": "relu"
      }, 
      "inputs": [[64, 0, 0]]
    }, 
    {
      "op": "null", 
      "name": "resnetv1b_layers2_conv1_weight", 
      "attrs": {
        "__dtype__": "0", 
        "__lr_mult__": "1.0", 
        "__profiler_scope__": "resnetv1b:layers2:basicblockv1b0:", 
        "__shape__": "(128, 128, 3, 3)", 
        "__storage_type__": "0", 
        "__wd_mult__": "1.0"
      }, 
      "inputs": []
    }, 
    {
      "op": "Convolution", 
      "name": "resnetv1b_layers2_conv1_fwd", 
      "attrs": {
        "__profiler_scope__": "resnetv1b:layers2:conv1:", 
        "dilate": "(1, 1)", 
        "kernel": "(3, 3)", 
        "layout": "NCHW", 
        "no_bias": "True", 
        "num_filter": "128", 
        "num_group": "1", 
        "pad": "(1, 1)", 
        "stride": "(1, 1)"
      }, 
      "inputs": [[65, 0, 0], [66, 0, 0]]
    }, 
    {
      "op": "null", 
      "name": "resnetv1b_layers2_batchnorm1_gamma", 
      "attrs": {
        "__dtype__": "0", 
        "__init__": "ones", 
        "__lr_mult__": "1.0", 
        "__profiler_scope__": "resnetv1b:layers2:basicblockv1b0:", 
        "__shape__": "(128,)", 
        "__storage_type__": "0", 
        "__wd_mult__": "1.0"
      }, 
      "inputs": []
    }, 
    {
      "op": "null", 
      "name": "resnetv1b_layers2_batchnorm1_beta", 
      "attrs": {
        "__dtype__": "0", 
        "__init__": "zeros", 
        "__lr_mult__": "1.0", 
        "__profiler_scope__": "resnetv1b:layers2:basicblockv1b0:", 
        "__shape__": "(128,)", 
        "__storage_type__": "0", 
        "__wd_mult__": "1.0"
      }, 
      "inputs": []
    }, 
    {
      "op": "null", 
      "name": "resnetv1b_layers2_batchnorm1_running_mean", 
      "attrs": {
        "__dtype__": "0", 
        "__init__": "zeros", 
        "__lr_mult__": "1.0", 
        "__profiler_scope__": "resnetv1b:layers2:basicblockv1b0:", 
        "__shape__": "(128,)", 
        "__storage_type__": "0", 
        "__wd_mult__": "1.0"
      }, 
      "inputs": []
    }, 
    {
      "op": "null", 
      "name": "resnetv1b_layers2_batchnorm1_running_var", 
      "attrs": {
        "__dtype__": "0", 
        "__init__": "ones", 
        "__lr_mult__": "1.0", 
        "__profiler_scope__": "resnetv1b:layers2:basicblockv1b0:", 
        "__shape__": "(128,)", 
        "__storage_type__": "0", 
        "__wd_mult__": "1.0"
      }, 
      "inputs": []
    }, 
    {
      "op": "BatchNorm", 
      "name": "resnetv1b_layers2_batchnorm1_fwd", 
      "attrs": {
        "__profiler_scope__": "resnetv1b:layers2:batchnorm1:", 
        "axis": "1", 
        "eps": "1e-05", 
        "fix_gamma": "False", 
        "momentum": "0.9", 
        "use_global_stats": "False"
      }, 
      "inputs": [[67, 0, 0], [68, 0, 0], [69, 0, 0], [70, 0, 1], [71, 0, 1]]
    }, 
    {
      "op": "null", 
      "name": "resnetv1b_down2_conv0_weight", 
      "attrs": {
        "__dtype__": "0", 
        "__lr_mult__": "1.0", 
        "__profiler_scope__": "resnetv1b:down2:", 
        "__shape__": "(128, 64, 1, 1)", 
        "__storage_type__": "0", 
        "__wd_mult__": "1.0"
      }, 
      "inputs": []
    }, 
    {
      "op": "Convolution", 
      "name": "resnetv1b_down2_conv0_fwd", 
      "attrs": {
        "__profiler_scope__": "resnetv1b:down2:conv0:", 
        "dilate": "(1, 1)", 
        "kernel": "(1, 1)", 
        "layout": "NCHW", 
        "no_bias": "True", 
        "num_filter": "128", 
        "num_group": "1", 
        "pad": "(0, 0)", 
        "stride": "(2, 2)"
      }, 
      "inputs": [[43, 0, 0], [73, 0, 0]]
    }, 
    {
      "op": "null", 
      "name": "resnetv1b_down2_batchnorm0_gamma", 
      "attrs": {
        "__dtype__": "0", 
        "__init__": "ones", 
        "__lr_mult__": "1.0", 
        "__profiler_scope__": "resnetv1b:down2:", 
        "__shape__": "(128,)", 
        "__storage_type__": "0", 
        "__wd_mult__": "1.0"
      }, 
      "inputs": []
    }, 
    {
      "op": "null", 
      "name": "resnetv1b_down2_batchnorm0_beta", 
      "attrs": {
        "__dtype__": "0", 
        "__init__": "zeros", 
        "__lr_mult__": "1.0", 
        "__profiler_scope__": "resnetv1b:down2:", 
        "__shape__": "(128,)", 
        "__storage_type__": "0", 
        "__wd_mult__": "1.0"
      }, 
      "inputs": []
    }, 
    {
      "op": "null", 
      "name": "resnetv1b_down2_batchnorm0_running_mean", 
      "attrs": {
        "__dtype__": "0", 
        "__init__": "zeros", 
        "__lr_mult__": "1.0", 
        "__profiler_scope__": "resnetv1b:down2:", 
        "__shape__": "(128,)", 
        "__storage_type__": "0", 
        "__wd_mult__": "1.0"
      }, 
      "inputs": []
    }, 
    {
      "op": "null", 
      "name": "resnetv1b_down2_batchnorm0_running_var", 
      "attrs": {
        "__dtype__": "0", 
        "__init__": "ones", 
        "__lr_mult__": "1.0", 
        "__profiler_scope__": "resnetv1b:down2:", 
        "__shape__": "(128,)", 
        "__storage_type__": "0", 
        "__wd_mult__": "1.0"
      }, 
      "inputs": []
    }, 
    {
      "op": "BatchNorm", 
      "name": "resnetv1b_down2_batchnorm0_fwd", 
      "attrs": {
        "__profiler_scope__": "resnetv1b:down2:batchnorm0:", 
        "axis": "1", 
        "eps": "1e-05", 
        "fix_gamma": "False", 
        "momentum": "0.9", 
        "use_global_stats": "False"
      }, 
      "inputs": [[74, 0, 0], [75, 0, 0], [76, 0, 0], [77, 0, 1], [78, 0, 1]]
    }, 
    {
      "op": "elemwise_add", 
      "name": "resnetv1b_layers2_basicblockv1b0__plus0", 
      "attrs": {"__profiler_scope__": "resnetv1b:layers2:basicblockv1b0:"}, 
      "inputs": [[72, 0, 0], [79, 0, 0]]
    }, 
    {
      "op": "Activation", 
      "name": "resnetv1b_layers2_relu1_fwd", 
      "attrs": {
        "__profiler_scope__": "resnetv1b:layers2:relu1:", 
        "act_type": "relu"
      }, 
      "inputs": [[80, 0, 0]]
    }, 
    {
      "op": "null", 
      "name": "resnetv1b_layers2_conv2_weight", 
      "attrs": {
        "__dtype__": "0", 
        "__lr_mult__": "1.0", 
        "__profiler_scope__": "resnetv1b:layers2:basicblockv1b1:", 
        "__shape__": "(128, 128, 3, 3)", 
        "__storage_type__": "0", 
        "__wd_mult__": "1.0"
      }, 
      "inputs": []
    }, 
    {
      "op": "Convolution", 
      "name": "resnetv1b_layers2_conv2_fwd", 
      "attrs": {
        "__profiler_scope__": "resnetv1b:layers2:conv2:", 
        "dilate": "(1, 1)", 
        "kernel": "(3, 3)", 
        "layout": "NCHW", 
        "no_bias": "True", 
        "num_filter": "128", 
        "num_group": "1", 
        "pad": "(1, 1)", 
        "stride": "(1, 1)"
      }, 
      "inputs": [[81, 0, 0], [82, 0, 0]]
    }, 
    {
      "op": "null", 
      "name": "resnetv1b_layers2_batchnorm2_gamma", 
      "attrs": {
        "__dtype__": "0", 
        "__init__": "ones", 
        "__lr_mult__": "1.0", 
        "__profiler_scope__": "resnetv1b:layers2:basicblockv1b1:", 
        "__shape__": "(128,)", 
        "__storage_type__": "0", 
        "__wd_mult__": "1.0"
      }, 
      "inputs": []
    }, 
    {
      "op": "null", 
      "name": "resnetv1b_layers2_batchnorm2_beta", 
      "attrs": {
        "__dtype__": "0", 
        "__init__": "zeros", 
        "__lr_mult__": "1.0", 
        "__profiler_scope__": "resnetv1b:layers2:basicblockv1b1:", 
        "__shape__": "(128,)", 
        "__storage_type__": "0", 
        "__wd_mult__": "1.0"
      }, 
      "inputs": []
    }, 
    {
      "op": "null", 
      "name": "resnetv1b_layers2_batchnorm2_running_mean", 
      "attrs": {
        "__dtype__": "0", 
        "__init__": "zeros", 
        "__lr_mult__": "1.0", 
        "__profiler_scope__": "resnetv1b:layers2:basicblockv1b1:", 
        "__shape__": "(128,)", 
        "__storage_type__": "0", 
        "__wd_mult__": "1.0"
      }, 
      "inputs": []
    }, 
    {
      "op": "null", 
      "name": "resnetv1b_layers2_batchnorm2_running_var", 
      "attrs": {
        "__dtype__": "0", 
        "__init__": "ones", 
        "__lr_mult__": "1.0", 
        "__profiler_scope__": "resnetv1b:layers2:basicblockv1b1:", 
        "__shape__": "(128,)", 
        "__storage_type__": "0", 
        "__wd_mult__": "1.0"
      }, 
      "inputs": []
    }, 
    {
      "op": "BatchNorm", 
      "name": "resnetv1b_layers2_batchnorm2_fwd", 
      "attrs": {
        "__profiler_scope__": "resnetv1b:layers2:batchnorm2:", 
        "axis": "1", 
        "eps": "1e-05", 
        "fix_gamma": "False", 
        "momentum": "0.9", 
        "use_global_stats": "False"
      }, 
      "inputs": [[83, 0, 0], [84, 0, 0], [85, 0, 0], [86, 0, 1], [87, 0, 1]]
    }, 
    {
      "op": "Activation", 
      "name": "resnetv1b_layers2_relu2_fwd", 
      "attrs": {
        "__profiler_scope__": "resnetv1b:layers2:relu2:", 
        "act_type": "relu"
      }, 
      "inputs": [[88, 0, 0]]
    }, 
    {
      "op": "null", 
      "name": "resnetv1b_layers2_conv3_weight", 
      "attrs": {
        "__dtype__": "0", 
        "__lr_mult__": "1.0", 
        "__profiler_scope__": "resnetv1b:layers2:basicblockv1b1:", 
        "__shape__": "(128, 128, 3, 3)", 
        "__storage_type__": "0", 
        "__wd_mult__": "1.0"
      }, 
      "inputs": []
    }, 
    {
      "op": "Convolution", 
      "name": "resnetv1b_layers2_conv3_fwd", 
      "attrs": {
        "__profiler_scope__": "resnetv1b:layers2:conv3:", 
        "dilate": "(1, 1)", 
        "kernel": "(3, 3)", 
        "layout": "NCHW", 
        "no_bias": "True", 
        "num_filter": "128", 
        "num_group": "1", 
        "pad": "(1, 1)", 
        "stride": "(1, 1)"
      }, 
      "inputs": [[89, 0, 0], [90, 0, 0]]
    }, 
    {
      "op": "null", 
      "name": "resnetv1b_layers2_batchnorm3_gamma", 
      "attrs": {
        "__dtype__": "0", 
        "__init__": "ones", 
        "__lr_mult__": "1.0", 
        "__profiler_scope__": "resnetv1b:layers2:basicblockv1b1:", 
        "__shape__": "(128,)", 
        "__storage_type__": "0", 
        "__wd_mult__": "1.0"
      }, 
      "inputs": []
    }, 
    {
      "op": "null", 
      "name": "resnetv1b_layers2_batchnorm3_beta", 
      "attrs": {
        "__dtype__": "0", 
        "__init__": "zeros", 
        "__lr_mult__": "1.0", 
        "__profiler_scope__": "resnetv1b:layers2:basicblockv1b1:", 
        "__shape__": "(128,)", 
        "__storage_type__": "0", 
        "__wd_mult__": "1.0"
      }, 
      "inputs": []
    }, 
    {
      "op": "null", 
      "name": "resnetv1b_layers2_batchnorm3_running_mean", 
      "attrs": {
        "__dtype__": "0", 
        "__init__": "zeros", 
        "__lr_mult__": "1.0", 
        "__profiler_scope__": "resnetv1b:layers2:basicblockv1b1:", 
        "__shape__": "(128,)", 
        "__storage_type__": "0", 
        "__wd_mult__": "1.0"
      }, 
      "inputs": []
    }, 
    {
      "op": "null", 
      "name": "resnetv1b_layers2_batchnorm3_running_var", 
      "attrs": {
        "__dtype__": "0", 
        "__init__": "ones", 
        "__lr_mult__": "1.0", 
        "__profiler_scope__": "resnetv1b:layers2:basicblockv1b1:", 
        "__shape__": "(128,)", 
        "__storage_type__": "0", 
        "__wd_mult__": "1.0"
      }, 
      "inputs": []
    }, 
    {
      "op": "BatchNorm", 
      "name": "resnetv1b_layers2_batchnorm3_fwd", 
      "attrs": {
        "__profiler_scope__": "resnetv1b:layers2:batchnorm3:", 
        "axis": "1", 
        "eps": "1e-05", 
        "fix_gamma": "False", 
        "momentum": "0.9", 
        "use_global_stats": "False"
      }, 
      "inputs": [[91, 0, 0], [92, 0, 0], [93, 0, 0], [94, 0, 1], [95, 0, 1]]
    }, 
    {
      "op": "elemwise_add", 
      "name": "resnetv1b_layers2_basicblockv1b1__plus0", 
      "attrs": {"__profiler_scope__": "resnetv1b:layers2:basicblockv1b1:"}, 
      "inputs": [[96, 0, 0], [81, 0, 0]]
    }, 
    {
      "op": "Activation", 
      "name": "resnetv1b_layers2_relu3_fwd", 
      "attrs": {
        "__profiler_scope__": "resnetv1b:layers2:relu3:", 
        "act_type": "relu"
      }, 
      "inputs": [[97, 0, 0]]
    }, 
    {
      "op": "null", 
      "name": "fusionfpn0_conv1_weight", 
      "attrs": {
        "__dtype__": "2", 
        "__lr_mult__": "1.0", 
        "__profiler_scope__": "fusionfpn0:", 
        "__shape__": "(64, 0, 1, 1)", 
        "__storage_type__": "0", 
        "__wd_mult__": "1.0"
      }, 
      "inputs": []
    }, 
    {
      "op": "Convolution", 
      "name": "fusionfpn0_conv1_fwd", 
      "attrs": {
        "__profiler_scope__": "fusionfpn0:conv1:", 
        "dilate": "(1, 1)", 
        "kernel": "(1, 1)", 
        "layout": "NCHW", 
        "no_bias": "True", 
        "num_filter": "64", 
        "num_group": "1", 
        "pad": "(0, 0)", 
        "stride": "(1, 1)"
      }, 
      "inputs": [[98, 0, 0], [99, 0, 0]]
    }, 
    {
      "op": "null", 
      "name": "fusionfpn0_batchnorm1_gamma", 
      "attrs": {
        "__dtype__": "0", 
        "__init__": "ones", 
        "__lr_mult__": "1.0", 
        "__profiler_scope__": "fusionfpn0:", 
        "__shape__": "(0,)", 
        "__storage_type__": "0", 
        "__wd_mult__": "1.0"
      }, 
      "inputs": []
    }, 
    {
      "op": "null", 
      "name": "fusionfpn0_batchnorm1_beta", 
      "attrs": {
        "__dtype__": "0", 
        "__init__": "zeros", 
        "__lr_mult__": "1.0", 
        "__profiler_scope__": "fusionfpn0:", 
        "__shape__": "(0,)", 
        "__storage_type__": "0", 
        "__wd_mult__": "1.0"
      }, 
      "inputs": []
    }, 
    {
      "op": "null", 
      "name": "fusionfpn0_batchnorm1_running_mean", 
      "attrs": {
        "__dtype__": "0", 
        "__init__": "zeros", 
        "__lr_mult__": "1.0", 
        "__profiler_scope__": "fusionfpn0:", 
        "__shape__": "(0,)", 
        "__storage_type__": "0", 
        "__wd_mult__": "1.0"
      }, 
      "inputs": []
    }, 
    {
      "op": "null", 
      "name": "fusionfpn0_batchnorm1_running_var", 
      "attrs": {
        "__dtype__": "0", 
        "__init__": "ones", 
        "__lr_mult__": "1.0", 
        "__profiler_scope__": "fusionfpn0:", 
        "__shape__": "(0,)", 
        "__storage_type__": "0", 
        "__wd_mult__": "1.0"
      }, 
      "inputs": []
    }, 
    {
      "op": "BatchNorm", 
      "name": "fusionfpn0_batchnorm1_fwd", 
      "attrs": {
        "__profiler_scope__": "fusionfpn0:batchnorm1:", 
        "axis": "1", 
        "eps": "1e-05", 
        "fix_gamma": "False", 
        "momentum": "0.9", 
        "use_global_stats": "False"
      }, 
      "inputs": [[100, 0, 0], [101, 0, 0], [102, 0, 0], [103, 0, 228], [104, 0, 228]]
    }, 
    {
      "op": "_contrib_BilinearResize2D", 
      "name": "fusionfpn0_upsample0_bilinearresize2d0", 
      "attrs": {
        "__profiler_scope__": "fusionfpn0:upsample0:", 
        "scale_height": "2", 
        "scale_width": "2"
      }, 
      "inputs": [[105, 0, 0]]
    }, 
    {
      "op": "broadcast_mul", 
      "name": "fusionfpn0_broadcast_mul1", 
      "attrs": {"__profiler_scope__": "fusionfpn0:"}, 
      "inputs": [[106, 0, 0], [56, 1, 0]]
    }, 
    {
      "op": "elemwise_add", 
      "name": "fusionfpn0__plus0", 
      "attrs": {"__profiler_scope__": "fusionfpn0:"}, 
      "inputs": [[57, 0, 0], [107, 0, 0]]
    }, 
    {
      "op": "null", 
      "name": "resnetv1b_layers3_conv0_weight", 
      "attrs": {
        "__dtype__": "0", 
        "__lr_mult__": "1.0", 
        "__profiler_scope__": "resnetv1b:layers3:basicblockv1b0:", 
        "__shape__": "(256, 128, 3, 3)", 
        "__storage_type__": "0", 
        "__wd_mult__": "1.0"
      }, 
      "inputs": []
    }, 
    {
      "op": "Convolution", 
      "name": "resnetv1b_layers3_conv0_fwd", 
      "attrs": {
        "__profiler_scope__": "resnetv1b:layers3:conv0:", 
        "dilate": "(1, 1)", 
        "kernel": "(3, 3)", 
        "layout": "NCHW", 
        "no_bias": "True", 
        "num_filter": "256", 
        "num_group": "1", 
        "pad": "(1, 1)", 
        "stride": "(2, 2)"
      }, 
      "inputs": [[98, 0, 0], [109, 0, 0]]
    }, 
    {
      "op": "null", 
      "name": "resnetv1b_layers3_batchnorm0_gamma", 
      "attrs": {
        "__dtype__": "0", 
        "__init__": "ones", 
        "__lr_mult__": "1.0", 
        "__profiler_scope__": "resnetv1b:layers3:basicblockv1b0:", 
        "__shape__": "(256,)", 
        "__storage_type__": "0", 
        "__wd_mult__": "1.0"
      }, 
      "inputs": []
    }, 
    {
      "op": "null", 
      "name": "resnetv1b_layers3_batchnorm0_beta", 
      "attrs": {
        "__dtype__": "0", 
        "__init__": "zeros", 
        "__lr_mult__": "1.0", 
        "__profiler_scope__": "resnetv1b:layers3:basicblockv1b0:", 
        "__shape__": "(256,)", 
        "__storage_type__": "0", 
        "__wd_mult__": "1.0"
      }, 
      "inputs": []
    }, 
    {
      "op": "null", 
      "name": "resnetv1b_layers3_batchnorm0_running_mean", 
      "attrs": {
        "__dtype__": "0", 
        "__init__": "zeros", 
        "__lr_mult__": "1.0", 
        "__profiler_scope__": "resnetv1b:layers3:basicblockv1b0:", 
        "__shape__": "(256,)", 
        "__storage_type__": "0", 
        "__wd_mult__": "1.0"
      }, 
      "inputs": []
    }, 
    {
      "op": "null", 
      "name": "resnetv1b_layers3_batchnorm0_running_var", 
      "attrs": {
        "__dtype__": "0", 
        "__init__": "ones", 
        "__lr_mult__": "1.0", 
        "__profiler_scope__": "resnetv1b:layers3:basicblockv1b0:", 
        "__shape__": "(256,)", 
        "__storage_type__": "0", 
        "__wd_mult__": "1.0"
      }, 
      "inputs": []
    }, 
    {
      "op": "BatchNorm", 
      "name": "resnetv1b_layers3_batchnorm0_fwd", 
      "attrs": {
        "__profiler_scope__": "resnetv1b:layers3:batchnorm0:", 
        "axis": "1", 
        "eps": "1e-05", 
        "fix_gamma": "False", 
        "momentum": "0.9", 
        "use_global_stats": "False"
      }, 
      "inputs": [[110, 0, 0], [111, 0, 0], [112, 0, 0], [113, 0, 1], [114, 0, 1]]
    }, 
    {
      "op": "Activation", 
      "name": "resnetv1b_layers3_relu0_fwd", 
      "attrs": {
        "__profiler_scope__": "resnetv1b:layers3:relu0:", 
        "act_type": "relu"
      }, 
      "inputs": [[115, 0, 0]]
    }, 
    {
      "op": "null", 
      "name": "resnetv1b_layers3_conv1_weight", 
      "attrs": {
        "__dtype__": "0", 
        "__lr_mult__": "1.0", 
        "__profiler_scope__": "resnetv1b:layers3:basicblockv1b0:", 
        "__shape__": "(256, 256, 3, 3)", 
        "__storage_type__": "0", 
        "__wd_mult__": "1.0"
      }, 
      "inputs": []
    }, 
    {
      "op": "Convolution", 
      "name": "resnetv1b_layers3_conv1_fwd", 
      "attrs": {
        "__profiler_scope__": "resnetv1b:layers3:conv1:", 
        "dilate": "(1, 1)", 
        "kernel": "(3, 3)", 
        "layout": "NCHW", 
        "no_bias": "True", 
        "num_filter": "256", 
        "num_group": "1", 
        "pad": "(1, 1)", 
        "stride": "(1, 1)"
      }, 
      "inputs": [[116, 0, 0], [117, 0, 0]]
    }, 
    {
      "op": "null", 
      "name": "resnetv1b_layers3_batchnorm1_gamma", 
      "attrs": {
        "__dtype__": "0", 
        "__init__": "ones", 
        "__lr_mult__": "1.0", 
        "__profiler_scope__": "resnetv1b:layers3:basicblockv1b0:", 
        "__shape__": "(256,)", 
        "__storage_type__": "0", 
        "__wd_mult__": "1.0"
      }, 
      "inputs": []
    }, 
    {
      "op": "null", 
      "name": "resnetv1b_layers3_batchnorm1_beta", 
      "attrs": {
        "__dtype__": "0", 
        "__init__": "zeros", 
        "__lr_mult__": "1.0", 
        "__profiler_scope__": "resnetv1b:layers3:basicblockv1b0:", 
        "__shape__": "(256,)", 
        "__storage_type__": "0", 
        "__wd_mult__": "1.0"
      }, 
      "inputs": []
    }, 
    {
      "op": "null", 
      "name": "resnetv1b_layers3_batchnorm1_running_mean", 
      "attrs": {
        "__dtype__": "0", 
        "__init__": "zeros", 
        "__lr_mult__": "1.0", 
        "__profiler_scope__": "resnetv1b:layers3:basicblockv1b0:", 
        "__shape__": "(256,)", 
        "__storage_type__": "0", 
        "__wd_mult__": "1.0"
      }, 
      "inputs": []
    }, 
    {
      "op": "null", 
      "name": "resnetv1b_layers3_batchnorm1_running_var", 
      "attrs": {
        "__dtype__": "0", 
        "__init__": "ones", 
        "__lr_mult__": "1.0", 
        "__profiler_scope__": "resnetv1b:layers3:basicblockv1b0:", 
        "__shape__": "(256,)", 
        "__storage_type__": "0", 
        "__wd_mult__": "1.0"
      }, 
      "inputs": []
    }, 
    {
      "op": "BatchNorm", 
      "name": "resnetv1b_layers3_batchnorm1_fwd", 
      "attrs": {
        "__profiler_scope__": "resnetv1b:layers3:batchnorm1:", 
        "axis": "1", 
        "eps": "1e-05", 
        "fix_gamma": "False", 
        "momentum": "0.9", 
        "use_global_stats": "False"
      }, 
      "inputs": [[118, 0, 0], [119, 0, 0], [120, 0, 0], [121, 0, 1], [122, 0, 1]]
    }, 
    {
      "op": "null", 
      "name": "resnetv1b_down3_conv0_weight", 
      "attrs": {
        "__dtype__": "0", 
        "__lr_mult__": "1.0", 
        "__profiler_scope__": "resnetv1b:down3:", 
        "__shape__": "(256, 128, 1, 1)", 
        "__storage_type__": "0", 
        "__wd_mult__": "1.0"
      }, 
      "inputs": []
    }, 
    {
      "op": "Convolution", 
      "name": "resnetv1b_down3_conv0_fwd", 
      "attrs": {
        "__profiler_scope__": "resnetv1b:down3:conv0:", 
        "dilate": "(1, 1)", 
        "kernel": "(1, 1)", 
        "layout": "NCHW", 
        "no_bias": "True", 
        "num_filter": "256", 
        "num_group": "1", 
        "pad": "(0, 0)", 
        "stride": "(2, 2)"
      }, 
      "inputs": [[98, 0, 0], [124, 0, 0]]
    }, 
    {
      "op": "null", 
      "name": "resnetv1b_down3_batchnorm0_gamma", 
      "attrs": {
        "__dtype__": "0", 
        "__init__": "ones", 
        "__lr_mult__": "1.0", 
        "__profiler_scope__": "resnetv1b:down3:", 
        "__shape__": "(256,)", 
        "__storage_type__": "0", 
        "__wd_mult__": "1.0"
      }, 
      "inputs": []
    }, 
    {
      "op": "null", 
      "name": "resnetv1b_down3_batchnorm0_beta", 
      "attrs": {
        "__dtype__": "0", 
        "__init__": "zeros", 
        "__lr_mult__": "1.0", 
        "__profiler_scope__": "resnetv1b:down3:", 
        "__shape__": "(256,)", 
        "__storage_type__": "0", 
        "__wd_mult__": "1.0"
      }, 
      "inputs": []
    }, 
    {
      "op": "null", 
      "name": "resnetv1b_down3_batchnorm0_running_mean", 
      "attrs": {
        "__dtype__": "0", 
        "__init__": "zeros", 
        "__lr_mult__": "1.0", 
        "__profiler_scope__": "resnetv1b:down3:", 
        "__shape__": "(256,)", 
        "__storage_type__": "0", 
        "__wd_mult__": "1.0"
      }, 
      "inputs": []
    }, 
    {
      "op": "null", 
      "name": "resnetv1b_down3_batchnorm0_running_var", 
      "attrs": {
        "__dtype__": "0", 
        "__init__": "ones", 
        "__lr_mult__": "1.0", 
        "__profiler_scope__": "resnetv1b:down3:", 
        "__shape__": "(256,)", 
        "__storage_type__": "0", 
        "__wd_mult__": "1.0"
      }, 
      "inputs": []
    }, 
    {
      "op": "BatchNorm", 
      "name": "resnetv1b_down3_batchnorm0_fwd", 
      "attrs": {
        "__profiler_scope__": "resnetv1b:down3:batchnorm0:", 
        "axis": "1", 
        "eps": "1e-05", 
        "fix_gamma": "False", 
        "momentum": "0.9", 
        "use_global_stats": "False"
      }, 
      "inputs": [[125, 0, 0], [126, 0, 0], [127, 0, 0], [128, 0, 1], [129, 0, 1]]
    }, 
    {
      "op": "elemwise_add", 
      "name": "resnetv1b_layers3_basicblockv1b0__plus0", 
      "attrs": {"__profiler_scope__": "resnetv1b:layers3:basicblockv1b0:"}, 
      "inputs": [[123, 0, 0], [130, 0, 0]]
    }, 
    {
      "op": "Activation", 
      "name": "resnetv1b_layers3_relu1_fwd", 
      "attrs": {
        "__profiler_scope__": "resnetv1b:layers3:relu1:", 
        "act_type": "relu"
      }, 
      "inputs": [[131, 0, 0]]
    }, 
    {
      "op": "null", 
      "name": "resnetv1b_layers3_conv2_weight", 
      "attrs": {
        "__dtype__": "0", 
        "__lr_mult__": "1.0", 
        "__profiler_scope__": "resnetv1b:layers3:basicblockv1b1:", 
        "__shape__": "(256, 256, 3, 3)", 
        "__storage_type__": "0", 
        "__wd_mult__": "1.0"
      }, 
      "inputs": []
    }, 
    {
      "op": "Convolution", 
      "name": "resnetv1b_layers3_conv2_fwd", 
      "attrs": {
        "__profiler_scope__": "resnetv1b:layers3:conv2:", 
        "dilate": "(1, 1)", 
        "kernel": "(3, 3)", 
        "layout": "NCHW", 
        "no_bias": "True", 
        "num_filter": "256", 
        "num_group": "1", 
        "pad": "(1, 1)", 
        "stride": "(1, 1)"
      }, 
      "inputs": [[132, 0, 0], [133, 0, 0]]
    }, 
    {
      "op": "null", 
      "name": "resnetv1b_layers3_batchnorm2_gamma", 
      "attrs": {
        "__dtype__": "0", 
        "__init__": "ones", 
        "__lr_mult__": "1.0", 
        "__profiler_scope__": "resnetv1b:layers3:basicblockv1b1:", 
        "__shape__": "(256,)", 
        "__storage_type__": "0", 
        "__wd_mult__": "1.0"
      }, 
      "inputs": []
    }, 
    {
      "op": "null", 
      "name": "resnetv1b_layers3_batchnorm2_beta", 
      "attrs": {
        "__dtype__": "0", 
        "__init__": "zeros", 
        "__lr_mult__": "1.0", 
        "__profiler_scope__": "resnetv1b:layers3:basicblockv1b1:", 
        "__shape__": "(256,)", 
        "__storage_type__": "0", 
        "__wd_mult__": "1.0"
      }, 
      "inputs": []
    }, 
    {
      "op": "null", 
      "name": "resnetv1b_layers3_batchnorm2_running_mean", 
      "attrs": {
        "__dtype__": "0", 
        "__init__": "zeros", 
        "__lr_mult__": "1.0", 
        "__profiler_scope__": "resnetv1b:layers3:basicblockv1b1:", 
        "__shape__": "(256,)", 
        "__storage_type__": "0", 
        "__wd_mult__": "1.0"
      }, 
      "inputs": []
    }, 
    {
      "op": "null", 
      "name": "resnetv1b_layers3_batchnorm2_running_var", 
      "attrs": {
        "__dtype__": "0", 
        "__init__": "ones", 
        "__lr_mult__": "1.0", 
        "__profiler_scope__": "resnetv1b:layers3:basicblockv1b1:", 
        "__shape__": "(256,)", 
        "__storage_type__": "0", 
        "__wd_mult__": "1.0"
      }, 
      "inputs": []
    }, 
    {
      "op": "BatchNorm", 
      "name": "resnetv1b_layers3_batchnorm2_fwd", 
      "attrs": {
        "__profiler_scope__": "resnetv1b:layers3:batchnorm2:", 
        "axis": "1", 
        "eps": "1e-05", 
        "fix_gamma": "False", 
        "momentum": "0.9", 
        "use_global_stats": "False"
      }, 
      "inputs": [[134, 0, 0], [135, 0, 0], [136, 0, 0], [137, 0, 1], [138, 0, 1]]
    }, 
    {
      "op": "Activation", 
      "name": "resnetv1b_layers3_relu2_fwd", 
      "attrs": {
        "__profiler_scope__": "resnetv1b:layers3:relu2:", 
        "act_type": "relu"
      }, 
      "inputs": [[139, 0, 0]]
    }, 
    {
      "op": "null", 
      "name": "resnetv1b_layers3_conv3_weight", 
      "attrs": {
        "__dtype__": "0", 
        "__lr_mult__": "1.0", 
        "__profiler_scope__": "resnetv1b:layers3:basicblockv1b1:", 
        "__shape__": "(256, 256, 3, 3)", 
        "__storage_type__": "0", 
        "__wd_mult__": "1.0"
      }, 
      "inputs": []
    }, 
    {
      "op": "Convolution", 
      "name": "resnetv1b_layers3_conv3_fwd", 
      "attrs": {
        "__profiler_scope__": "resnetv1b:layers3:conv3:", 
        "dilate": "(1, 1)", 
        "kernel": "(3, 3)", 
        "layout": "NCHW", 
        "no_bias": "True", 
        "num_filter": "256", 
        "num_group": "1", 
        "pad": "(1, 1)", 
        "stride": "(1, 1)"
      }, 
      "inputs": [[140, 0, 0], [141, 0, 0]]
    }, 
    {
      "op": "null", 
      "name": "resnetv1b_layers3_batchnorm3_gamma", 
      "attrs": {
        "__dtype__": "0", 
        "__init__": "ones", 
        "__lr_mult__": "1.0", 
        "__profiler_scope__": "resnetv1b:layers3:basicblockv1b1:", 
        "__shape__": "(256,)", 
        "__storage_type__": "0", 
        "__wd_mult__": "1.0"
      }, 
      "inputs": []
    }, 
    {
      "op": "null", 
      "name": "resnetv1b_layers3_batchnorm3_beta", 
      "attrs": {
        "__dtype__": "0", 
        "__init__": "zeros", 
        "__lr_mult__": "1.0", 
        "__profiler_scope__": "resnetv1b:layers3:basicblockv1b1:", 
        "__shape__": "(256,)", 
        "__storage_type__": "0", 
        "__wd_mult__": "1.0"
      }, 
      "inputs": []
    }, 
    {
      "op": "null", 
      "name": "resnetv1b_layers3_batchnorm3_running_mean", 
      "attrs": {
        "__dtype__": "0", 
        "__init__": "zeros", 
        "__lr_mult__": "1.0", 
        "__profiler_scope__": "resnetv1b:layers3:basicblockv1b1:", 
        "__shape__": "(256,)", 
        "__storage_type__": "0", 
        "__wd_mult__": "1.0"
      }, 
      "inputs": []
    }, 
    {
      "op": "null", 
      "name": "resnetv1b_layers3_batchnorm3_running_var", 
      "attrs": {
        "__dtype__": "0", 
        "__init__": "ones", 
        "__lr_mult__": "1.0", 
        "__profiler_scope__": "resnetv1b:layers3:basicblockv1b1:", 
        "__shape__": "(256,)", 
        "__storage_type__": "0", 
        "__wd_mult__": "1.0"
      }, 
      "inputs": []
    }, 
    {
      "op": "BatchNorm", 
      "name": "resnetv1b_layers3_batchnorm3_fwd", 
      "attrs": {
        "__profiler_scope__": "resnetv1b:layers3:batchnorm3:", 
        "axis": "1", 
        "eps": "1e-05", 
        "fix_gamma": "False", 
        "momentum": "0.9", 
        "use_global_stats": "False"
      }, 
      "inputs": [[142, 0, 0], [143, 0, 0], [144, 0, 0], [145, 0, 1], [146, 0, 1]]
    }, 
    {
      "op": "elemwise_add", 
      "name": "resnetv1b_layers3_basicblockv1b1__plus0", 
      "attrs": {"__profiler_scope__": "resnetv1b:layers3:basicblockv1b1:"}, 
      "inputs": [[147, 0, 0], [132, 0, 0]]
    }, 
    {
      "op": "Activation", 
      "name": "resnetv1b_layers3_relu3_fwd", 
      "attrs": {
        "__profiler_scope__": "resnetv1b:layers3:relu3:", 
        "act_type": "relu"
      }, 
      "inputs": [[148, 0, 0]]
    }, 
    {
      "op": "null", 
      "name": "fusionfpn0_conv2_weight", 
      "attrs": {
        "__dtype__": "2", 
        "__lr_mult__": "1.0", 
        "__profiler_scope__": "fusionfpn0:", 
        "__shape__": "(64, 0, 1, 1)", 
        "__storage_type__": "0", 
        "__wd_mult__": "1.0"
      }, 
      "inputs": []
    }, 
    {
      "op": "Convolution", 
      "name": "fusionfpn0_conv2_fwd", 
      "attrs": {
        "__profiler_scope__": "fusionfpn0:conv2:", 
        "dilate": "(1, 1)", 
        "kernel": "(1, 1)", 
        "layout": "NCHW", 
        "no_bias": "True", 
        "num_filter": "64", 
        "num_group": "1", 
        "pad": "(0, 0)", 
        "stride": "(1, 1)"
      }, 
      "inputs": [[149, 0, 0], [150, 0, 0]]
    }, 
    {
      "op": "null", 
      "name": "fusionfpn0_batchnorm2_gamma", 
      "attrs": {
        "__dtype__": "0", 
        "__init__": "ones", 
        "__lr_mult__": "1.0", 
        "__profiler_scope__": "fusionfpn0:", 
        "__shape__": "(0,)", 
        "__storage_type__": "0", 
        "__wd_mult__": "1.0"
      }, 
      "inputs": []
    }, 
    {
      "op": "null", 
      "name": "fusionfpn0_batchnorm2_beta", 
      "attrs": {
        "__dtype__": "0", 
        "__init__": "zeros", 
        "__lr_mult__": "1.0", 
        "__profiler_scope__": "fusionfpn0:", 
        "__shape__": "(0,)", 
        "__storage_type__": "0", 
        "__wd_mult__": "1.0"
      }, 
      "inputs": []
    }, 
    {
      "op": "null", 
      "name": "fusionfpn0_batchnorm2_running_mean", 
      "attrs": {
        "__dtype__": "0", 
        "__init__": "zeros", 
        "__lr_mult__": "1.0", 
        "__profiler_scope__": "fusionfpn0:", 
        "__shape__": "(0,)", 
        "__storage_type__": "0", 
        "__wd_mult__": "1.0"
      }, 
      "inputs": []
    }, 
    {
      "op": "null", 
      "name": "fusionfpn0_batchnorm2_running_var", 
      "attrs": {
        "__dtype__": "0", 
        "__init__": "ones", 
        "__lr_mult__": "1.0", 
        "__profiler_scope__": "fusionfpn0:", 
        "__shape__": "(0,)", 
        "__storage_type__": "0", 
        "__wd_mult__": "1.0"
      }, 
      "inputs": []
    }, 
    {
      "op": "BatchNorm", 
      "name": "fusionfpn0_batchnorm2_fwd", 
      "attrs": {
        "__profiler_scope__": "fusionfpn0:batchnorm2:", 
        "axis": "1", 
        "eps": "1e-05", 
        "fix_gamma": "False", 
        "momentum": "0.9", 
        "use_global_stats": "False"
      }, 
      "inputs": [[151, 0, 0], [152, 0, 0], [153, 0, 0], [154, 0, 228], [155, 0, 228]]
    }, 
    {
      "op": "_contrib_BilinearResize2D", 
      "name": "fusionfpn0_upsample1_bilinearresize2d0", 
      "attrs": {
        "__profiler_scope__": "fusionfpn0:upsample1:", 
        "scale_height": "4", 
        "scale_width": "4"
      }, 
      "inputs": [[156, 0, 0]]
    }, 
    {
      "op": "broadcast_mul", 
      "name": "fusionfpn0_broadcast_mul2", 
      "attrs": {"__profiler_scope__": "fusionfpn0:"}, 
      "inputs": [[157, 0, 0], [56, 2, 0]]
    }, 
    {
      "op": "elemwise_add", 
      "name": "fusionfpn0__plus1", 
      "attrs": {"__profiler_scope__": "fusionfpn0:"}, 
      "inputs": [[108, 0, 0], [158, 0, 0]]
    }, 
    {
      "op": "null", 
      "name": "resnetv1b_layers4_conv0_weight", 
      "attrs": {
        "__dtype__": "0", 
        "__lr_mult__": "1.0", 
        "__profiler_scope__": "resnetv1b:layers4:basicblockv1b0:", 
        "__shape__": "(512, 256, 3, 3)", 
        "__storage_type__": "0", 
        "__wd_mult__": "1.0"
      }, 
      "inputs": []
    }, 
    {
      "op": "Convolution", 
      "name": "resnetv1b_layers4_conv0_fwd", 
      "attrs": {
        "__profiler_scope__": "resnetv1b:layers4:conv0:", 
        "dilate": "(1, 1)", 
        "kernel": "(3, 3)", 
        "layout": "NCHW", 
        "no_bias": "True", 
        "num_filter": "512", 
        "num_group": "1", 
        "pad": "(1, 1)", 
        "stride": "(2, 2)"
      }, 
      "inputs": [[149, 0, 0], [160, 0, 0]]
    }, 
    {
      "op": "null", 
      "name": "resnetv1b_layers4_batchnorm0_gamma", 
      "attrs": {
        "__dtype__": "0", 
        "__init__": "ones", 
        "__lr_mult__": "1.0", 
        "__profiler_scope__": "resnetv1b:layers4:basicblockv1b0:", 
        "__shape__": "(512,)", 
        "__storage_type__": "0", 
        "__wd_mult__": "1.0"
      }, 
      "inputs": []
    }, 
    {
      "op": "null", 
      "name": "resnetv1b_layers4_batchnorm0_beta", 
      "attrs": {
        "__dtype__": "0", 
        "__init__": "zeros", 
        "__lr_mult__": "1.0", 
        "__profiler_scope__": "resnetv1b:layers4:basicblockv1b0:", 
        "__shape__": "(512,)", 
        "__storage_type__": "0", 
        "__wd_mult__": "1.0"
      }, 
      "inputs": []
    }, 
    {
      "op": "null", 
      "name": "resnetv1b_layers4_batchnorm0_running_mean", 
      "attrs": {
        "__dtype__": "0", 
        "__init__": "zeros", 
        "__lr_mult__": "1.0", 
        "__profiler_scope__": "resnetv1b:layers4:basicblockv1b0:", 
        "__shape__": "(512,)", 
        "__storage_type__": "0", 
        "__wd_mult__": "1.0"
      }, 
      "inputs": []
    }, 
    {
      "op": "null", 
      "name": "resnetv1b_layers4_batchnorm0_running_var", 
      "attrs": {
        "__dtype__": "0", 
        "__init__": "ones", 
        "__lr_mult__": "1.0", 
        "__profiler_scope__": "resnetv1b:layers4:basicblockv1b0:", 
        "__shape__": "(512,)", 
        "__storage_type__": "0", 
        "__wd_mult__": "1.0"
      }, 
      "inputs": []
    }, 
    {
      "op": "BatchNorm", 
      "name": "resnetv1b_layers4_batchnorm0_fwd", 
      "attrs": {
        "__profiler_scope__": "resnetv1b:layers4:batchnorm0:", 
        "axis": "1", 
        "eps": "1e-05", 
        "fix_gamma": "False", 
        "momentum": "0.9", 
        "use_global_stats": "False"
      }, 
      "inputs": [[161, 0, 0], [162, 0, 0], [163, 0, 0], [164, 0, 1], [165, 0, 1]]
    }, 
    {
      "op": "Activation", 
      "name": "resnetv1b_layers4_relu0_fwd", 
      "attrs": {
        "__profiler_scope__": "resnetv1b:layers4:relu0:", 
        "act_type": "relu"
      }, 
      "inputs": [[166, 0, 0]]
    }, 
    {
      "op": "null", 
      "name": "resnetv1b_layers4_conv1_weight", 
      "attrs": {
        "__dtype__": "0", 
        "__lr_mult__": "1.0", 
        "__profiler_scope__": "resnetv1b:layers4:basicblockv1b0:", 
        "__shape__": "(512, 512, 3, 3)", 
        "__storage_type__": "0", 
        "__wd_mult__": "1.0"
      }, 
      "inputs": []
    }, 
    {
      "op": "Convolution", 
      "name": "resnetv1b_layers4_conv1_fwd", 
      "attrs": {
        "__profiler_scope__": "resnetv1b:layers4:conv1:", 
        "dilate": "(1, 1)", 
        "kernel": "(3, 3)", 
        "layout": "NCHW", 
        "no_bias": "True", 
        "num_filter": "512", 
        "num_group": "1", 
        "pad": "(1, 1)", 
        "stride": "(1, 1)"
      }, 
      "inputs": [[167, 0, 0], [168, 0, 0]]
    }, 
    {
      "op": "null", 
      "name": "resnetv1b_layers4_batchnorm1_gamma", 
      "attrs": {
        "__dtype__": "0", 
        "__init__": "ones", 
        "__lr_mult__": "1.0", 
        "__profiler_scope__": "resnetv1b:layers4:basicblockv1b0:", 
        "__shape__": "(512,)", 
        "__storage_type__": "0", 
        "__wd_mult__": "1.0"
      }, 
      "inputs": []
    }, 
    {
      "op": "null", 
      "name": "resnetv1b_layers4_batchnorm1_beta", 
      "attrs": {
        "__dtype__": "0", 
        "__init__": "zeros", 
        "__lr_mult__": "1.0", 
        "__profiler_scope__": "resnetv1b:layers4:basicblockv1b0:", 
        "__shape__": "(512,)", 
        "__storage_type__": "0", 
        "__wd_mult__": "1.0"
      }, 
      "inputs": []
    }, 
    {
      "op": "null", 
      "name": "resnetv1b_layers4_batchnorm1_running_mean", 
      "attrs": {
        "__dtype__": "0", 
        "__init__": "zeros", 
        "__lr_mult__": "1.0", 
        "__profiler_scope__": "resnetv1b:layers4:basicblockv1b0:", 
        "__shape__": "(512,)", 
        "__storage_type__": "0", 
        "__wd_mult__": "1.0"
      }, 
      "inputs": []
    }, 
    {
      "op": "null", 
      "name": "resnetv1b_layers4_batchnorm1_running_var", 
      "attrs": {
        "__dtype__": "0", 
        "__init__": "ones", 
        "__lr_mult__": "1.0", 
        "__profiler_scope__": "resnetv1b:layers4:basicblockv1b0:", 
        "__shape__": "(512,)", 
        "__storage_type__": "0", 
        "__wd_mult__": "1.0"
      }, 
      "inputs": []
    }, 
    {
      "op": "BatchNorm", 
      "name": "resnetv1b_layers4_batchnorm1_fwd", 
      "attrs": {
        "__profiler_scope__": "resnetv1b:layers4:batchnorm1:", 
        "axis": "1", 
        "eps": "1e-05", 
        "fix_gamma": "False", 
        "momentum": "0.9", 
        "use_global_stats": "False"
      }, 
      "inputs": [[169, 0, 0], [170, 0, 0], [171, 0, 0], [172, 0, 1], [173, 0, 1]]
    }, 
    {
      "op": "null", 
      "name": "resnetv1b_down4_conv0_weight", 
      "attrs": {
        "__dtype__": "0", 
        "__lr_mult__": "1.0", 
        "__profiler_scope__": "resnetv1b:down4:", 
        "__shape__": "(512, 256, 1, 1)", 
        "__storage_type__": "0", 
        "__wd_mult__": "1.0"
      }, 
      "inputs": []
    }, 
    {
      "op": "Convolution", 
      "name": "resnetv1b_down4_conv0_fwd", 
      "attrs": {
        "__profiler_scope__": "resnetv1b:down4:conv0:", 
        "dilate": "(1, 1)", 
        "kernel": "(1, 1)", 
        "layout": "NCHW", 
        "no_bias": "True", 
        "num_filter": "512", 
        "num_group": "1", 
        "pad": "(0, 0)", 
        "stride": "(2, 2)"
      }, 
      "inputs": [[149, 0, 0], [175, 0, 0]]
    }, 
    {
      "op": "null", 
      "name": "resnetv1b_down4_batchnorm0_gamma", 
      "attrs": {
        "__dtype__": "0", 
        "__init__": "ones", 
        "__lr_mult__": "1.0", 
        "__profiler_scope__": "resnetv1b:down4:", 
        "__shape__": "(512,)", 
        "__storage_type__": "0", 
        "__wd_mult__": "1.0"
      }, 
      "inputs": []
    }, 
    {
      "op": "null", 
      "name": "resnetv1b_down4_batchnorm0_beta", 
      "attrs": {
        "__dtype__": "0", 
        "__init__": "zeros", 
        "__lr_mult__": "1.0", 
        "__profiler_scope__": "resnetv1b:down4:", 
        "__shape__": "(512,)", 
        "__storage_type__": "0", 
        "__wd_mult__": "1.0"
      }, 
      "inputs": []
    }, 
    {
      "op": "null", 
      "name": "resnetv1b_down4_batchnorm0_running_mean", 
      "attrs": {
        "__dtype__": "0", 
        "__init__": "zeros", 
        "__lr_mult__": "1.0", 
        "__profiler_scope__": "resnetv1b:down4:", 
        "__shape__": "(512,)", 
        "__storage_type__": "0", 
        "__wd_mult__": "1.0"
      }, 
      "inputs": []
    }, 
    {
      "op": "null", 
      "name": "resnetv1b_down4_batchnorm0_running_var", 
      "attrs": {
        "__dtype__": "0", 
        "__init__": "ones", 
        "__lr_mult__": "1.0", 
        "__profiler_scope__": "resnetv1b:down4:", 
        "__shape__": "(512,)", 
        "__storage_type__": "0", 
        "__wd_mult__": "1.0"
      }, 
      "inputs": []
    }, 
    {
      "op": "BatchNorm", 
      "name": "resnetv1b_down4_batchnorm0_fwd", 
      "attrs": {
        "__profiler_scope__": "resnetv1b:down4:batchnorm0:", 
        "axis": "1", 
        "eps": "1e-05", 
        "fix_gamma": "False", 
        "momentum": "0.9", 
        "use_global_stats": "False"
      }, 
      "inputs": [[176, 0, 0], [177, 0, 0], [178, 0, 0], [179, 0, 1], [180, 0, 1]]
    }, 
    {
      "op": "elemwise_add", 
      "name": "resnetv1b_layers4_basicblockv1b0__plus0", 
      "attrs": {"__profiler_scope__": "resnetv1b:layers4:basicblockv1b0:"}, 
      "inputs": [[174, 0, 0], [181, 0, 0]]
    }, 
    {
      "op": "Activation", 
      "name": "resnetv1b_layers4_relu1_fwd", 
      "attrs": {
        "__profiler_scope__": "resnetv1b:layers4:relu1:", 
        "act_type": "relu"
      }, 
      "inputs": [[182, 0, 0]]
    }, 
    {
      "op": "null", 
      "name": "resnetv1b_layers4_conv2_weight", 
      "attrs": {
        "__dtype__": "0", 
        "__lr_mult__": "1.0", 
        "__profiler_scope__": "resnetv1b:layers4:basicblockv1b1:", 
        "__shape__": "(512, 512, 3, 3)", 
        "__storage_type__": "0", 
        "__wd_mult__": "1.0"
      }, 
      "inputs": []
    }, 
    {
      "op": "Convolution", 
      "name": "resnetv1b_layers4_conv2_fwd", 
      "attrs": {
        "__profiler_scope__": "resnetv1b:layers4:conv2:", 
        "dilate": "(1, 1)", 
        "kernel": "(3, 3)", 
        "layout": "NCHW", 
        "no_bias": "True", 
        "num_filter": "512", 
        "num_group": "1", 
        "pad": "(1, 1)", 
        "stride": "(1, 1)"
      }, 
      "inputs": [[183, 0, 0], [184, 0, 0]]
    }, 
    {
      "op": "null", 
      "name": "resnetv1b_layers4_batchnorm2_gamma", 
      "attrs": {
        "__dtype__": "0", 
        "__init__": "ones", 
        "__lr_mult__": "1.0", 
        "__profiler_scope__": "resnetv1b:layers4:basicblockv1b1:", 
        "__shape__": "(512,)", 
        "__storage_type__": "0", 
        "__wd_mult__": "1.0"
      }, 
      "inputs": []
    }, 
    {
      "op": "null", 
      "name": "resnetv1b_layers4_batchnorm2_beta", 
      "attrs": {
        "__dtype__": "0", 
        "__init__": "zeros", 
        "__lr_mult__": "1.0", 
        "__profiler_scope__": "resnetv1b:layers4:basicblockv1b1:", 
        "__shape__": "(512,)", 
        "__storage_type__": "0", 
        "__wd_mult__": "1.0"
      }, 
      "inputs": []
    }, 
    {
      "op": "null", 
      "name": "resnetv1b_layers4_batchnorm2_running_mean", 
      "attrs": {
        "__dtype__": "0", 
        "__init__": "zeros", 
        "__lr_mult__": "1.0", 
        "__profiler_scope__": "resnetv1b:layers4:basicblockv1b1:", 
        "__shape__": "(512,)", 
        "__storage_type__": "0", 
        "__wd_mult__": "1.0"
      }, 
      "inputs": []
    }, 
    {
      "op": "null", 
      "name": "resnetv1b_layers4_batchnorm2_running_var", 
      "attrs": {
        "__dtype__": "0", 
        "__init__": "ones", 
        "__lr_mult__": "1.0", 
        "__profiler_scope__": "resnetv1b:layers4:basicblockv1b1:", 
        "__shape__": "(512,)", 
        "__storage_type__": "0", 
        "__wd_mult__": "1.0"
      }, 
      "inputs": []
    }, 
    {
      "op": "BatchNorm", 
      "name": "resnetv1b_layers4_batchnorm2_fwd", 
      "attrs": {
        "__profiler_scope__": "resnetv1b:layers4:batchnorm2:", 
        "axis": "1", 
        "eps": "1e-05", 
        "fix_gamma": "False", 
        "momentum": "0.9", 
        "use_global_stats": "False"
      }, 
      "inputs": [[185, 0, 0], [186, 0, 0], [187, 0, 0], [188, 0, 1], [189, 0, 1]]
    }, 
    {
      "op": "Activation", 
      "name": "resnetv1b_layers4_relu2_fwd", 
      "attrs": {
        "__profiler_scope__": "resnetv1b:layers4:relu2:", 
        "act_type": "relu"
      }, 
      "inputs": [[190, 0, 0]]
    }, 
    {
      "op": "null", 
      "name": "resnetv1b_layers4_conv3_weight", 
      "attrs": {
        "__dtype__": "0", 
        "__lr_mult__": "1.0", 
        "__profiler_scope__": "resnetv1b:layers4:basicblockv1b1:", 
        "__shape__": "(512, 512, 3, 3)", 
        "__storage_type__": "0", 
        "__wd_mult__": "1.0"
      }, 
      "inputs": []
    }, 
    {
      "op": "Convolution", 
      "name": "resnetv1b_layers4_conv3_fwd", 
      "attrs": {
        "__profiler_scope__": "resnetv1b:layers4:conv3:", 
        "dilate": "(1, 1)", 
        "kernel": "(3, 3)", 
        "layout": "NCHW", 
        "no_bias": "True", 
        "num_filter": "512", 
        "num_group": "1", 
        "pad": "(1, 1)", 
        "stride": "(1, 1)"
      }, 
      "inputs": [[191, 0, 0], [192, 0, 0]]
    }, 
    {
      "op": "null", 
      "name": "resnetv1b_layers4_batchnorm3_gamma", 
      "attrs": {
        "__dtype__": "0", 
        "__init__": "ones", 
        "__lr_mult__": "1.0", 
        "__profiler_scope__": "resnetv1b:layers4:basicblockv1b1:", 
        "__shape__": "(512,)", 
        "__storage_type__": "0", 
        "__wd_mult__": "1.0"
      }, 
      "inputs": []
    }, 
    {
      "op": "null", 
      "name": "resnetv1b_layers4_batchnorm3_beta", 
      "attrs": {
        "__dtype__": "0", 
        "__init__": "zeros", 
        "__lr_mult__": "1.0", 
        "__profiler_scope__": "resnetv1b:layers4:basicblockv1b1:", 
        "__shape__": "(512,)", 
        "__storage_type__": "0", 
        "__wd_mult__": "1.0"
      }, 
      "inputs": []
    }, 
    {
      "op": "null", 
      "name": "resnetv1b_layers4_batchnorm3_running_mean", 
      "attrs": {
        "__dtype__": "0", 
        "__init__": "zeros", 
        "__lr_mult__": "1.0", 
        "__profiler_scope__": "resnetv1b:layers4:basicblockv1b1:", 
        "__shape__": "(512,)", 
        "__storage_type__": "0", 
        "__wd_mult__": "1.0"
      }, 
      "inputs": []
    }, 
    {
      "op": "null", 
      "name": "resnetv1b_layers4_batchnorm3_running_var", 
      "attrs": {
        "__dtype__": "0", 
        "__init__": "ones", 
        "__lr_mult__": "1.0", 
        "__profiler_scope__": "resnetv1b:layers4:basicblockv1b1:", 
        "__shape__": "(512,)", 
        "__storage_type__": "0", 
        "__wd_mult__": "1.0"
      }, 
      "inputs": []
    }, 
    {
      "op": "BatchNorm", 
      "name": "resnetv1b_layers4_batchnorm3_fwd", 
      "attrs": {
        "__profiler_scope__": "resnetv1b:layers4:batchnorm3:", 
        "axis": "1", 
        "eps": "1e-05", 
        "fix_gamma": "False", 
        "momentum": "0.9", 
        "use_global_stats": "False"
      }, 
      "inputs": [[193, 0, 0], [194, 0, 0], [195, 0, 0], [196, 0, 1], [197, 0, 1]]
    }, 
    {
      "op": "elemwise_add", 
      "name": "resnetv1b_layers4_basicblockv1b1__plus0", 
      "attrs": {"__profiler_scope__": "resnetv1b:layers4:basicblockv1b1:"}, 
      "inputs": [[198, 0, 0], [183, 0, 0]]
    }, 
    {
      "op": "Activation", 
      "name": "resnetv1b_layers4_relu3_fwd", 
      "attrs": {
        "__profiler_scope__": "resnetv1b:layers4:relu3:", 
        "act_type": "relu"
      }, 
      "inputs": [[199, 0, 0]]
    }, 
    {
      "op": "null", 
      "name": "fusionfpn0_conv3_weight", 
      "attrs": {
        "__dtype__": "2", 
        "__lr_mult__": "1.0", 
        "__profiler_scope__": "fusionfpn0:", 
        "__shape__": "(64, 0, 1, 1)", 
        "__storage_type__": "0", 
        "__wd_mult__": "1.0"
      }, 
      "inputs": []
    }, 
    {
      "op": "Convolution", 
      "name": "fusionfpn0_conv3_fwd", 
      "attrs": {
        "__profiler_scope__": "fusionfpn0:conv3:", 
        "dilate": "(1, 1)", 
        "kernel": "(1, 1)", 
        "layout": "NCHW", 
        "no_bias": "True", 
        "num_filter": "64", 
        "num_group": "1", 
        "pad": "(0, 0)", 
        "stride": "(1, 1)"
      }, 
      "inputs": [[200, 0, 0], [201, 0, 0]]
    }, 
    {
      "op": "null", 
      "name": "fusionfpn0_batchnorm3_gamma", 
      "attrs": {
        "__dtype__": "0", 
        "__init__": "ones", 
        "__lr_mult__": "1.0", 
        "__profiler_scope__": "fusionfpn0:", 
        "__shape__": "(0,)", 
        "__storage_type__": "0", 
        "__wd_mult__": "1.0"
      }, 
      "inputs": []
    }, 
    {
      "op": "null", 
      "name": "fusionfpn0_batchnorm3_beta", 
      "attrs": {
        "__dtype__": "0", 
        "__init__": "zeros", 
        "__lr_mult__": "1.0", 
        "__profiler_scope__": "fusionfpn0:", 
        "__shape__": "(0,)", 
        "__storage_type__": "0", 
        "__wd_mult__": "1.0"
      }, 
      "inputs": []
    }, 
    {
      "op": "null", 
      "name": "fusionfpn0_batchnorm3_running_mean", 
      "attrs": {
        "__dtype__": "0", 
        "__init__": "zeros", 
        "__lr_mult__": "1.0", 
        "__profiler_scope__": "fusionfpn0:", 
        "__shape__": "(0,)", 
        "__storage_type__": "0", 
        "__wd_mult__": "1.0"
      }, 
      "inputs": []
    }, 
    {
      "op": "null", 
      "name": "fusionfpn0_batchnorm3_running_var", 
      "attrs": {
        "__dtype__": "0", 
        "__init__": "ones", 
        "__lr_mult__": "1.0", 
        "__profiler_scope__": "fusionfpn0:", 
        "__shape__": "(0,)", 
        "__storage_type__": "0", 
        "__wd_mult__": "1.0"
      }, 
      "inputs": []
    }, 
    {
      "op": "BatchNorm", 
      "name": "fusionfpn0_batchnorm3_fwd", 
      "attrs": {
        "__profiler_scope__": "fusionfpn0:batchnorm3:", 
        "axis": "1", 
        "eps": "1e-05", 
        "fix_gamma": "False", 
        "momentum": "0.9", 
        "use_global_stats": "False"
      }, 
      "inputs": [[202, 0, 0], [203, 0, 0], [204, 0, 0], [205, 0, 228], [206, 0, 228]]
    }, 
    {
      "op": "_contrib_BilinearResize2D", 
      "name": "fusionfpn0_upsample2_bilinearresize2d0", 
      "attrs": {
        "__profiler_scope__": "fusionfpn0:upsample2:", 
        "scale_height": "8", 
        "scale_width": "8"
      }, 
      "inputs": [[207, 0, 0]]
    }, 
    {
      "op": "broadcast_mul", 
      "name": "fusionfpn0_broadcast_mul3", 
      "attrs": {"__profiler_scope__": "fusionfpn0:"}, 
      "inputs": [[208, 0, 0], [56, 3, 0]]
    }, 
    {
      "op": "elemwise_add", 
      "name": "fusionfpn0__plus2", 
      "attrs": {"__profiler_scope__": "fusionfpn0:"}, 
      "inputs": [[159, 0, 0], [209, 0, 0]]
    }, 
    {
      "op": "Activation", 
      "name": "relu1_fwd", 
      "attrs": {
        "__profiler_scope__": "relu1:", 
        "act_type": "relu"
      }, 
      "inputs": [[210, 0, 0]]
    }, 
    {
      "op": "null", 
      "name": "saccadenet0_center_attentive_moduleconv0_weight", 
      "attrs": {
        "__dtype__": "2", 
        "__init__": "[\"xavier\", {\"rnd_type\": \"uniform\", \"factor_type\": \"avg\", \"magnitude\": 3}]", 
        "__lr_mult__": "1.0", 
        "__profiler_scope__": "saccadenet0:center_attentive_module:", 
        "__shape__": "(32, 0, 3, 3)", 
        "__storage_type__": "0", 
        "__wd_mult__": "1.0"
      }, 
      "inputs": []
    }, 
    {
      "op": "null", 
      "name": "saccadenet0_center_attentive_moduleconv0_bias", 
      "attrs": {
        "__dtype__": "2", 
        "__init__": "zeros", 
        "__lr_mult__": "1.0", 
        "__profiler_scope__": "saccadenet0:center_attentive_module:", 
        "__shape__": "(32,)", 
        "__storage_type__": "0", 
        "__wd_mult__": "0.0"
      }, 
      "inputs": []
    }, 
    {
      "op": "Convolution", 
      "name": "saccadenet0_center_attentive_moduleconv0_fwd", 
      "attrs": {
        "__profiler_scope__": "saccadenet0:center_attentive_module:conv0:", 
        "dilate": "(1, 1)", 
        "kernel": "(3, 3)", 
        "layout": "NCHW", 
        "no_bias": "False", 
        "num_filter": "32", 
        "num_group": "1", 
        "pad": "(1, 1)", 
        "stride": "(1, 1)"
      }, 
      "inputs": [[211, 0, 0], [212, 0, 0], [213, 0, 0]]
    }, 
    {
      "op": "Activation", 
      "name": "saccadenet0_center_attentive_modulerelu0_fwd", 
      "attrs": {
        "__profiler_scope__": "saccadenet0:center_attentive_module:relu0:", 
        "act_type": "relu"
      }, 
      "inputs": [[214, 0, 0]]
    }, 
    {
      "op": "null", 
      "name": "saccadenet0_center_attentive_moduleconv1_weight", 
      "attrs": {
        "__dtype__": "2", 
        "__init__": "[\"xavier\", {\"rnd_type\": \"uniform\", \"factor_type\": \"avg\", \"magnitude\": 3}]", 
        "__lr_mult__": "1.0", 
        "__profiler_scope__": "saccadenet0:center_attentive_module:", 
        "__shape__": "(2, 0, 1, 1)", 
        "__storage_type__": "0", 
        "__wd_mult__": "1.0"
      }, 
      "inputs": []
    }, 
    {
      "op": "null", 
      "name": "saccadenet0_center_attentive_moduleconv1_bias", 
      "attrs": {
        "__dtype__": "2", 
        "__init__": "[\"constant\", {\"value\": -2.19}]", 
        "__lr_mult__": "1.0", 
        "__profiler_scope__": "saccadenet0:center_attentive_module:", 
        "__shape__": "(2,)", 
        "__storage_type__": "0", 
        "__wd_mult__": "0.0"
      }, 
      "inputs": []
    }, 
    {
      "op": "Convolution", 
      "name": "saccadenet0_center_attentive_moduleconv1_fwd", 
      "attrs": {
        "__profiler_scope__": "saccadenet0:center_attentive_module:conv1:", 
        "dilate": "(1, 1)", 
        "kernel": "(1, 1)", 
        "layout": "NCHW", 
        "no_bias": "False", 
        "num_filter": "2", 
        "num_group": "1", 
        "pad": "(0, 0)", 
        "stride": "(1, 1)"
      }, 
      "inputs": [[215, 0, 0], [216, 0, 0], [217, 0, 0]]
    }, 
    {
      "op": "Cast", 
      "name": "saccadenet0_cast0", 
      "attrs": {
        "__profiler_scope__": "saccadenet0:", 
        "dtype": "float32"
      }, 
      "inputs": [[218, 0, 0]]
    }, 
    {
      "op": "sigmoid", 
      "name": "saccadenet0_sigmoid0", 
      "attrs": {"__profiler_scope__": "saccadenet0:"}, 
      "inputs": [[219, 0, 0]]
    }, 
    {
      "op": "Pooling", 
      "name": "saccadenet0_pool0_fwd", 
      "attrs": {
        "__profiler_scope__": "saccadenet0:pool0:", 
        "global_pool": "False", 
        "kernel": "(3, 3)", 
        "layout": "NCHW", 
        "pad": "(1, 1)", 
        "pool_type": "max", 
        "pooling_convention": "valid", 
        "stride": "(1, 1)"
      }, 
      "inputs": [[220, 0, 0]]
    }, 
    {
      "op": "broadcast_equal", 
      "name": "saccadenet0_broadcast_equal0", 
      "attrs": {"__profiler_scope__": "saccadenet0:"}, 
      "inputs": [[221, 0, 0], [220, 0, 0]]
    }, 
    {
      "op": "elemwise_mul", 
      "name": "saccadenet0__mul0", 
      "attrs": {"__profiler_scope__": "saccadenet0:"}, 
      "inputs": [[222, 0, 0], [220, 0, 0]]
    }, 
    {
      "op": "Reshape", 
      "name": "saccadenet0_saccadenetdecoder0_reshape0", 
      "attrs": {
        "__profiler_scope__": "saccadenet0:saccadenetdecoder0:", 
        "shape": "(0, -1)"
      }, 
      "inputs": [[223, 0, 0]]
    }, 
    {
      "op": "topk", 
      "name": "saccadenet0_saccadenetdecoder0_topk0", 
      "attrs": {
        "__profiler_scope__": "saccadenet0:saccadenetdecoder0:", 
        "k": "40", 
        "ret_typ": "both"
      }, 
      "inputs": [[224, 0, 0]]
    }, 
    {
      "op": "Cast", 
      "name": "saccadenet0_saccadenetdecoder0_cast0", 
      "attrs": {
        "__profiler_scope__": "saccadenet0:saccadenetdecoder0:", 
        "dtype": "int64"
      }, 
      "inputs": [[225, 1, 0]]
    }, 
    {
      "op": "shape_array", 
      "name": "saccadenet0_saccadenetdecoder0_shape_array0", 
      "attrs": {"__profiler_scope__": "saccadenet0:saccadenetdecoder0:"}, 
      "inputs": [[223, 0, 0]]
    }, 
    {
      "op": "SliceChannel", 
      "name": "saccadenet0_saccadenetdecoder0_split0", 
      "attrs": {
        "__profiler_scope__": "saccadenet0:saccadenetdecoder0:", 
        "axis": "0", 
        "num_outputs": "4"
      }, 
      "inputs": [[227, 0, 0]]
    }, 
    {
      "op": "elemwise_mul", 
      "name": "saccadenet0_saccadenetdecoder0__mul0", 
      "attrs": {"__profiler_scope__": "saccadenet0:saccadenetdecoder0:"}, 
      "inputs": [[228, 2, 0], [228, 3, 0]]
    }, 
    {
      "op": "broadcast_div", 
      "name": "saccadenet0_saccadenetdecoder0_broadcast_div0", 
      "attrs": {"__profiler_scope__": "saccadenet0:saccadenetdecoder0:"}, 
      "inputs": [[226, 0, 0], [229, 0, 0]]
    }, 
    {
      "op": "Cast", 
      "name": "saccadenet0_saccadenetdecoder0_cast1", 
      "attrs": {
        "__profiler_scope__": "saccadenet0:saccadenetdecoder0:", 
        "dtype": "float32"
      }, 
      "inputs": [[230, 0, 0]]
    }, 
    {
      "op": "elemwise_mul", 
      "name": "saccadenet0_saccadenetdecoder0__mul1", 
      "attrs": {"__profiler_scope__": "saccadenet0:saccadenetdecoder0:"}, 
      "inputs": [[228, 2, 0], [228, 3, 0]]
    }, 
    {
      "op": "broadcast_mod", 
      "name": "saccadenet0_saccadenetdecoder0_broadcast_mod0", 
      "attrs": {"__profiler_scope__": "saccadenet0:saccadenetdecoder0:"}, 
      "inputs": [[226, 0, 0], [232, 0, 0]]
    }, 
    {
      "op": "broadcast_mod", 
      "name": "saccadenet0_saccadenetdecoder0_broadcast_mod1", 
      "attrs": {"__profiler_scope__": "saccadenet0:saccadenetdecoder0:"}, 
      "inputs": [[233, 0, 0], [228, 3, 0]]
    }, 
    {
      "op": "Cast", 
      "name": "saccadenet0_saccadenetdecoder0_cast5", 
      "attrs": {
        "__profiler_scope__": "saccadenet0:saccadenetdecoder0:", 
        "dtype": "float32"
      }, 
      "inputs": [[234, 0, 0]]
    }, 
    {
      "op": "null", 
      "name": "saccadenet0_wh_regconv0_weight", 
      "attrs": {
        "__dtype__": "2", 
        "__init__": "[\"normal\", {\"sigma\": 0.001}]", 
        "__lr_mult__": "1.0", 
        "__profiler_scope__": "saccadenet0:wh_reg:", 
        "__shape__": "(32, 0, 3, 3)", 
        "__storage_type__": "0", 
        "__wd_mult__": "1.0"
      }, 
      "inputs": []
    }, 
    {
      "op": "null", 
      "name": "saccadenet0_wh_regconv0_bias", 
      "attrs": {
        "__dtype__": "2", 
        "__init__": "zeros", 
        "__lr_mult__": "1.0", 
        "__profiler_scope__": "saccadenet0:wh_reg:", 
        "__shape__": "(32,)", 
        "__storage_type__": "0", 
        "__wd_mult__": "0.0"
      }, 
      "inputs": []
    }, 
    {
      "op": "Convolution", 
      "name": "saccadenet0_wh_regconv0_fwd", 
      "attrs": {
        "__profiler_scope__": "saccadenet0:wh_reg:conv0:", 
        "dilate": "(1, 1)", 
        "kernel": "(3, 3)", 
        "layout": "NCHW", 
        "no_bias": "False", 
        "num_filter": "32", 
        "num_group": "1", 
        "pad": "(1, 1)", 
        "stride": "(1, 1)"
      }, 
      "inputs": [[211, 0, 0], [236, 0, 0], [237, 0, 0]]
    }, 
    {
      "op": "Activation", 
      "name": "saccadenet0_wh_regrelu0_fwd", 
      "attrs": {
        "__profiler_scope__": "saccadenet0:wh_reg:relu0:", 
        "act_type": "relu"
      }, 
      "inputs": [[238, 0, 0]]
    }, 
    {
      "op": "null", 
      "name": "saccadenet0_wh_regconv1_weight", 
      "attrs": {
        "__dtype__": "2", 
        "__init__": "[\"normal\", {\"sigma\": 0.001}]", 
        "__lr_mult__": "1.0", 
        "__profiler_scope__": "saccadenet0:wh_reg:", 
        "__shape__": "(2, 0, 1, 1)", 
        "__storage_type__": "0", 
        "__wd_mult__": "1.0"
      }, 
      "inputs": []
    }, 
    {
      "op": "null", 
      "name": "saccadenet0_wh_regconv1_bias", 
      "attrs": {
        "__dtype__": "2", 
        "__init__": "zeros", 
        "__lr_mult__": "1.0", 
        "__profiler_scope__": "saccadenet0:wh_reg:", 
        "__shape__": "(2,)", 
        "__storage_type__": "0", 
        "__wd_mult__": "0.0"
      }, 
      "inputs": []
    }, 
    {
      "op": "Convolution", 
      "name": "saccadenet0_wh_regconv1_fwd", 
      "attrs": {
        "__profiler_scope__": "saccadenet0:wh_reg:conv1:", 
        "dilate": "(1, 1)", 
        "kernel": "(1, 1)", 
        "layout": "NCHW", 
        "no_bias": "False", 
        "num_filter": "2", 
        "num_group": "1", 
        "pad": "(0, 0)", 
        "stride": "(1, 1)"
      }, 
      "inputs": [[239, 0, 0], [240, 0, 0], [241, 0, 0]]
    }, 
    {
      "op": "null", 
      "name": "saccadenet0_ct_regconv0_weight", 
      "attrs": {
        "__dtype__": "2", 
        "__init__": "[\"normal\", {\"sigma\": 0.001}]", 
        "__lr_mult__": "1.0", 
        "__profiler_scope__": "saccadenet0:ct_reg:", 
        "__shape__": "(32, 0, 3, 3)", 
        "__storage_type__": "0", 
        "__wd_mult__": "1.0"
      }, 
      "inputs": []
    }, 
    {
      "op": "null", 
      "name": "saccadenet0_ct_regconv0_bias", 
      "attrs": {
        "__dtype__": "2", 
        "__init__": "zeros", 
        "__lr_mult__": "1.0", 
        "__profiler_scope__": "saccadenet0:ct_reg:", 
        "__shape__": "(32,)", 
        "__storage_type__": "0", 
        "__wd_mult__": "0.0"
      }, 
      "inputs": []
    }, 
    {
      "op": "Convolution", 
      "name": "saccadenet0_ct_regconv0_fwd", 
      "attrs": {
        "__profiler_scope__": "saccadenet0:ct_reg:conv0:", 
        "dilate": "(1, 1)", 
        "kernel": "(3, 3)", 
        "layout": "NCHW", 
        "no_bias": "False", 
        "num_filter": "32", 
        "num_group": "1", 
        "pad": "(1, 1)", 
        "stride": "(1, 1)"
      }, 
      "inputs": [[211, 0, 0], [243, 0, 0], [244, 0, 0]]
    }, 
    {
      "op": "Activation", 
      "name": "saccadenet0_ct_regrelu0_fwd", 
      "attrs": {
        "__profiler_scope__": "saccadenet0:ct_reg:relu0:", 
        "act_type": "relu"
      }, 
      "inputs": [[245, 0, 0]]
    }, 
    {
      "op": "null", 
      "name": "saccadenet0_ct_regconv1_weight", 
      "attrs": {
        "__dtype__": "2", 
        "__init__": "[\"normal\", {\"sigma\": 0.001}]", 
        "__lr_mult__": "1.0", 
        "__profiler_scope__": "saccadenet0:ct_reg:", 
        "__shape__": "(2, 0, 1, 1)", 
        "__storage_type__": "0", 
        "__wd_mult__": "1.0"
      }, 
      "inputs": []
    }, 
    {
      "op": "null", 
      "name": "saccadenet0_ct_regconv1_bias", 
      "attrs": {
        "__dtype__": "2", 
        "__init__": "zeros", 
        "__lr_mult__": "1.0", 
        "__profiler_scope__": "saccadenet0:ct_reg:", 
        "__shape__": "(2,)", 
        "__storage_type__": "0", 
        "__wd_mult__": "0.0"
      }, 
      "inputs": []
    }, 
    {
      "op": "Convolution", 
      "name": "saccadenet0_ct_regconv1_fwd", 
      "attrs": {
        "__profiler_scope__": "saccadenet0:ct_reg:conv1:", 
        "dilate": "(1, 1)", 
        "kernel": "(1, 1)", 
        "layout": "NCHW", 
        "no_bias": "False", 
        "num_filter": "2", 
        "num_group": "1", 
        "pad": "(0, 0)", 
        "stride": "(1, 1)"
      }, 
      "inputs": [[246, 0, 0], [247, 0, 0], [248, 0, 0]]
    }, 
    {
      "op": "Activation", 
      "name": "saccadenet0_tanh0_fwd", 
      "attrs": {
        "__profiler_scope__": "saccadenet0:tanh0:", 
        "act_type": "tanh"
      }, 
      "inputs": [[249, 0, 0]]
    }, 
    {
      "op": "Concat", 
      "name": "saccadenet0_attentive_transform_moduleconcat0", 
      "attrs": {
        "__profiler_scope__": "saccadenet0:attentive_transform_module:", 
        "dim": "1", 
        "num_args": "2"
      }, 
      "inputs": [[242, 0, 0], [250, 0, 0]]
    }, 
    {
      "op": "Cast", 
      "name": "saccadenet0_cast1", 
      "attrs": {
        "__profiler_scope__": "saccadenet0:", 
        "dtype": "float32"
      }, 
      "inputs": [[251, 0, 0]]
    }, 
    {
      "op": "SliceChannel", 
      "name": "saccadenet0_saccadenetdecoder0_split1", 
      "attrs": {
        "__profiler_scope__": "saccadenet0:saccadenetdecoder0:", 
        "axis": "1", 
        "num_outputs": "2"
      }, 
      "inputs": [[252, 0, 0]]
    }, 
    {
      "op": "transpose", 
      "name": "saccadenet0_saccadenetdecoder0_transpose0", 
      "attrs": {
        "__profiler_scope__": "saccadenet0:saccadenetdecoder0:", 
        "axes": "(0, 2, 3, 1)"
      }, 
      "inputs": [[253, 1, 0]]
    }, 
    {
      "op": "Reshape", 
      "name": "saccadenet0_saccadenetdecoder0_reshape1", 
      "attrs": {
        "__profiler_scope__": "saccadenet0:saccadenetdecoder0:", 
        "shape": "(0, -1, 2)"
      }, 
      "inputs": [[254, 0, 0]]
    }, 
    {
      "op": "_arange", 
      "name": "saccadenet0_saccadenetdecoder0__arange0", 
      "attrs": {
        "__profiler_scope__": "saccadenet0:saccadenetdecoder0:", 
        "dtype": "float32", 
        "infer_range": "False", 
        "repeat": "1", 
        "start": "256", 
        "step": "1.0", 
        "stop": "None"
      }, 
      "inputs": []
    }, 
    {
      "op": "slice_like", 
      "name": "saccadenet0_saccadenetdecoder0_slice_like0", 
      "attrs": {
        "__profiler_scope__": "saccadenet0:saccadenetdecoder0:", 
        "axes": "0"
      }, 
      "inputs": [[256, 0, 0], [255, 0, 0]]
    }, 
    {
      "op": "expand_dims", 
      "name": "saccadenet0_saccadenetdecoder0_expand_dims0", 
      "attrs": {
        "__profiler_scope__": "saccadenet0:saccadenetdecoder0:", 
        "axis": "-1"
      }, 
      "inputs": [[257, 0, 0]]
    }, 
    {
      "op": "tile", 
      "name": "saccadenet0_saccadenetdecoder0_tile0", 
      "attrs": {
        "__profiler_scope__": "saccadenet0:saccadenetdecoder0:", 
        "reps": "(1, 40)"
      }, 
      "inputs": [[258, 0, 0]]
    }, 
    {
      "op": "Cast", 
      "name": "saccadenet0_saccadenetdecoder0_cast2", 
      "attrs": {
        "__profiler_scope__": "saccadenet0:saccadenetdecoder0:", 
        "dtype": "int64"
      }, 
      "inputs": [[259, 0, 0]]
    }, 
    {
      "op": "zeros_like", 
      "name": "saccadenet0_saccadenetdecoder0_zeros_like0", 
      "attrs": {
        "__profiler_scope__": "saccadenet0:saccadenetdecoder0:", 
        "dtype": "int64"
      }, 
      "inputs": [[260, 0, 0]]
    }, 
    {
      "op": "Concat", 
      "name": "saccadenet0_saccadenetdecoder0_concat0", 
      "attrs": {
        "__profiler_scope__": "saccadenet0:saccadenetdecoder0:", 
        "dim": "0", 
        "num_args": "3"
      }, 
      "inputs": [[260, 0, 0], [233, 0, 0], [261, 0, 0]]
    }, 
    {
      "op": "Reshape", 
      "name": "saccadenet0_saccadenetdecoder0_reshape3", 
      "attrs": {
        "__profiler_scope__": "saccadenet0:saccadenetdecoder0:", 
        "shape": "(3, -1)"
      }, 
      "inputs": [[262, 0, 0]]
    }, 
    {
      "op": "gather_nd", 
      "name": "saccadenet0_saccadenetdecoder0_gather_nd0", 
      "attrs": {"__profiler_scope__": "saccadenet0:saccadenetdecoder0:"}, 
      "inputs": [[255, 0, 0], [263, 0, 0]]
    }, 
    {
      "op": "Reshape", 
      "name": "saccadenet0_saccadenetdecoder0_reshape5", 
      "attrs": {
        "__profiler_scope__": "saccadenet0:saccadenetdecoder0:", 
        "shape": "(-1, 40)"
      }, 
      "inputs": [[264, 0, 0]]
    }, 
    {
      "op": "Cast", 
      "name": "saccadenet0_saccadenetdecoder0_cast3", 
      "attrs": {
        "__profiler_scope__": "saccadenet0:saccadenetdecoder0:", 
        "dtype": "float32"
      }, 
      "inputs": [[265, 0, 0]]
    }, 
    {
      "op": "elemwise_add", 
      "name": "saccadenet0_saccadenetdecoder0__plus0", 
      "attrs": {"__profiler_scope__": "saccadenet0:saccadenetdecoder0:"}, 
      "inputs": [[235, 0, 0], [266, 0, 0]]
    }, 
    {
      "op": "transpose", 
      "name": "saccadenet0_saccadenetdecoder0_transpose1", 
      "attrs": {
        "__profiler_scope__": "saccadenet0:saccadenetdecoder0:", 
        "axes": "(0, 2, 3, 1)"
      }, 
      "inputs": [[253, 0, 0]]
    }, 
    {
      "op": "Reshape", 
      "name": "saccadenet0_saccadenetdecoder0_reshape2", 
      "attrs": {
        "__profiler_scope__": "saccadenet0:saccadenetdecoder0:", 
        "shape": "(0, -1, 2)"
      }, 
      "inputs": [[268, 0, 0]]
    }, 
    {
      "op": "gather_nd", 
      "name": "saccadenet0_saccadenetdecoder0_gather_nd2", 
      "attrs": {"__profiler_scope__": "saccadenet0:saccadenetdecoder0:"}, 
      "inputs": [[269, 0, 0], [263, 0, 0]]
    }, 
    {
      "op": "Reshape", 
      "name": "saccadenet0_saccadenetdecoder0_reshape7", 
      "attrs": {
        "__profiler_scope__": "saccadenet0:saccadenetdecoder0:", 
        "shape": "(-1, 40)"
      }, 
      "inputs": [[270, 0, 0]]
    }, 
    {
      "op": "Cast", 
      "name": "saccadenet0_saccadenetdecoder0_cast7", 
      "attrs": {
        "__profiler_scope__": "saccadenet0:saccadenetdecoder0:", 
        "dtype": "float32"
      }, 
      "inputs": [[271, 0, 0]]
    }, 
    {
      "op": "_div_scalar", 
      "name": "saccadenet0_saccadenetdecoder0__divscalar0", 
      "attrs": {
        "__profiler_scope__": "saccadenet0:saccadenetdecoder0:", 
        "scalar": "2"
      }, 
      "inputs": [[272, 0, 0]]
    }, 
    {
      "op": "elemwise_sub", 
      "name": "saccadenet0_saccadenetdecoder0__minus0", 
      "attrs": {"__profiler_scope__": "saccadenet0:saccadenetdecoder0:"}, 
      "inputs": [[267, 0, 0], [273, 0, 0]]
    }, 
    {
      "op": "expand_dims", 
      "name": "saccadenet0_saccadenetdecoder0_expand_dims1", 
      "attrs": {
        "__profiler_scope__": "saccadenet0:saccadenetdecoder0:", 
        "axis": "-1"
      }, 
      "inputs": [[274, 0, 0]]
    }, 
    {
      "op": "broadcast_div", 
      "name": "saccadenet0_saccadenetdecoder0_broadcast_div1", 
      "attrs": {"__profiler_scope__": "saccadenet0:saccadenetdecoder0:"}, 
      "inputs": [[233, 0, 0], [228, 3, 0]]
    }, 
    {
      "op": "Cast", 
      "name": "saccadenet0_saccadenetdecoder0_cast6", 
      "attrs": {
        "__profiler_scope__": "saccadenet0:saccadenetdecoder0:", 
        "dtype": "float32"
      }, 
      "inputs": [[276, 0, 0]]
    }, 
    {
      "op": "ones_like", 
      "name": "saccadenet0_saccadenetdecoder0_ones_like0", 
      "attrs": {
        "__profiler_scope__": "saccadenet0:saccadenetdecoder0:", 
        "dtype": "int64"
      }, 
      "inputs": [[260, 0, 0]]
    }, 
    {
      "op": "Concat", 
      "name": "saccadenet0_saccadenetdecoder0_concat1", 
      "attrs": {
        "__profiler_scope__": "saccadenet0:saccadenetdecoder0:", 
        "dim": "0", 
        "num_args": "3"
      }, 
      "inputs": [[260, 0, 0], [233, 0, 0], [278, 0, 0]]
    }, 
    {
      "op": "Reshape", 
      "name": "saccadenet0_saccadenetdecoder0_reshape4", 
      "attrs": {
        "__profiler_scope__": "saccadenet0:saccadenetdecoder0:", 
        "shape": "(3, -1)"
      }, 
      "inputs": [[279, 0, 0]]
    }, 
    {
      "op": "gather_nd", 
      "name": "saccadenet0_saccadenetdecoder0_gather_nd1", 
      "attrs": {"__profiler_scope__": "saccadenet0:saccadenetdecoder0:"}, 
      "inputs": [[255, 0, 0], [280, 0, 0]]
    }, 
    {
      "op": "Reshape", 
      "name": "saccadenet0_saccadenetdecoder0_reshape6", 
      "attrs": {
        "__profiler_scope__": "saccadenet0:saccadenetdecoder0:", 
        "shape": "(-1, 40)"
      }, 
      "inputs": [[281, 0, 0]]
    }, 
    {
      "op": "Cast", 
      "name": "saccadenet0_saccadenetdecoder0_cast4", 
      "attrs": {
        "__profiler_scope__": "saccadenet0:saccadenetdecoder0:", 
        "dtype": "float32"
      }, 
      "inputs": [[282, 0, 0]]
    }, 
    {
      "op": "elemwise_add", 
      "name": "saccadenet0_saccadenetdecoder0__plus1", 
      "attrs": {"__profiler_scope__": "saccadenet0:saccadenetdecoder0:"}, 
      "inputs": [[277, 0, 0], [283, 0, 0]]
    }, 
    {
      "op": "gather_nd", 
      "name": "saccadenet0_saccadenetdecoder0_gather_nd3", 
      "attrs": {"__profiler_scope__": "saccadenet0:saccadenetdecoder0:"}, 
      "inputs": [[269, 0, 0], [280, 0, 0]]
    }, 
    {
      "op": "Reshape", 
      "name": "saccadenet0_saccadenetdecoder0_reshape8", 
      "attrs": {
        "__profiler_scope__": "saccadenet0:saccadenetdecoder0:", 
        "shape": "(-1, 40)"
      }, 
      "inputs": [[285, 0, 0]]
    }, 
    {
      "op": "Cast", 
      "name": "saccadenet0_saccadenetdecoder0_cast8", 
      "attrs": {
        "__profiler_scope__": "saccadenet0:saccadenetdecoder0:", 
        "dtype": "float32"
      }, 
      "inputs": [[286, 0, 0]]
    }, 
    {
      "op": "_div_scalar", 
      "name": "saccadenet0_saccadenetdecoder0__divscalar1", 
      "attrs": {
        "__profiler_scope__": "saccadenet0:saccadenetdecoder0:", 
        "scalar": "2"
      }, 
      "inputs": [[287, 0, 0]]
    }, 
    {
      "op": "elemwise_sub", 
      "name": "saccadenet0_saccadenetdecoder0__minus1", 
      "attrs": {"__profiler_scope__": "saccadenet0:saccadenetdecoder0:"}, 
      "inputs": [[284, 0, 0], [288, 0, 0]]
    }, 
    {
      "op": "expand_dims", 
      "name": "saccadenet0_saccadenetdecoder0_expand_dims2", 
      "attrs": {
        "__profiler_scope__": "saccadenet0:saccadenetdecoder0:", 
        "axis": "-1"
      }, 
      "inputs": [[289, 0, 0]]
    }, 
    {
      "op": "elemwise_add", 
      "name": "saccadenet0_saccadenetdecoder0__plus2", 
      "attrs": {"__profiler_scope__": "saccadenet0:saccadenetdecoder0:"}, 
      "inputs": [[267, 0, 0], [273, 0, 0]]
    }, 
    {
      "op": "expand_dims", 
      "name": "saccadenet0_saccadenetdecoder0_expand_dims3", 
      "attrs": {
        "__profiler_scope__": "saccadenet0:saccadenetdecoder0:", 
        "axis": "-1"
      }, 
      "inputs": [[291, 0, 0]]
    }, 
    {
      "op": "elemwise_add", 
      "name": "saccadenet0_saccadenetdecoder0__plus3", 
      "attrs": {"__profiler_scope__": "saccadenet0:saccadenetdecoder0:"}, 
      "inputs": [[284, 0, 0], [288, 0, 0]]
    }, 
    {
      "op": "expand_dims", 
      "name": "saccadenet0_saccadenetdecoder0_expand_dims4", 
      "attrs": {
        "__profiler_scope__": "saccadenet0:saccadenetdecoder0:", 
        "axis": "-1"
      }, 
      "inputs": [[293, 0, 0]]
    }, 
    {
      "op": "Concat", 
      "name": "saccadenet0_saccadenetdecoder0_concat2", 
      "attrs": {
        "__profiler_scope__": "saccadenet0:saccadenetdecoder0:", 
        "dim": "-1", 
        "num_args": "4"
      }, 
      "inputs": [[275, 0, 0], [290, 0, 0], [292, 0, 0], [294, 0, 0]]
    }, 
    {
      "op": "_mul_scalar", 
      "name": "saccadenet0_saccadenetdecoder0__mulscalar0", 
      "attrs": {
        "__profiler_scope__": "saccadenet0:saccadenetdecoder0:", 
        "scalar": "4.0"
      }, 
      "inputs": [[295, 0, 0]]
    }
  ], 
  "arg_nodes": [
    0, 
    1, 
    3, 
    4, 
    5, 
    6, 
    10, 
    12, 
    13, 
    14, 
    15, 
    18, 
    20, 
    21, 
    22, 
    23, 
    27, 
    29, 
    30, 
    31, 
    32, 
    35, 
    37, 
    38, 
    39, 
    40, 
    44, 
    46, 
    47, 
    48, 
    49, 
    51, 
    58, 
    60, 
    61, 
    62, 
    63, 
    66, 
    68, 
    69, 
    70, 
    71, 
    73, 
    75, 
    76, 
    77, 
    78, 
    82, 
    84, 
    85, 
    86, 
    87, 
    90, 
    92, 
    93, 
    94, 
    95, 
    99, 
    101, 
    102, 
    103, 
    104, 
    109, 
    111, 
    112, 
    113, 
    114, 
    117, 
    119, 
    120, 
    121, 
    122, 
    124, 
    126, 
    127, 
    128, 
    129, 
    133, 
    135, 
    136, 
    137, 
    138, 
    141, 
    143, 
    144, 
    145, 
    146, 
    150, 
    152, 
    153, 
    154, 
    155, 
    160, 
    162, 
    163, 
    164, 
    165, 
    168, 
    170, 
    171, 
    172, 
    173, 
    175, 
    177, 
    178, 
    179, 
    180, 
    184, 
    186, 
    187, 
    188, 
    189, 
    192, 
    194, 
    195, 
    196, 
    197, 
    201, 
    203, 
    204, 
    205, 
    206, 
    212, 
    213, 
    216, 
    217, 
    236, 
    237, 
    240, 
    241, 
    243, 
    244, 
    247, 
    248
  ], 
  "node_row_ptr": [
    0, 
    1, 
    2, 
    3, 
    4, 
    5, 
    6, 
    7, 
    10, 
    11, 
    13, 
    14, 
    15, 
    16, 
    17, 
    18, 
    19, 
    22, 
    23, 
    24, 
    25, 
    26, 
    27, 
    28, 
    29, 
    32, 
    33, 
    34, 
    35, 
    36, 
    37, 
    38, 
    39, 
    40, 
    43, 
    44, 
    45, 
    46, 
    47, 
    48, 
    49, 
    50, 
    53, 
    54, 
    55, 
    56, 
    57, 
    58, 
    59, 
    60, 
    61, 
    64, 
    65, 
    66, 
    67, 
    68, 
    69, 
    73, 
    74, 
    75, 
    76, 
    77, 
    78, 
    79, 
    80, 
    83, 
    84, 
    85, 
    86, 
    87, 
    88, 
    89, 
    90, 
    93, 
    94, 
    95, 
    96, 
    97, 
    98, 
    99, 
    102, 
    103, 
    104, 
    105, 
    106, 
    107, 
    108, 
    109, 
    110, 
    113, 
    114, 
    115, 
    116, 
    117, 
    118, 
    119, 
    120, 
    123, 
    124, 
    125, 
    126, 
    127, 
    128, 
    129, 
    130, 
    131, 
    134, 
    135, 
    136, 
    137, 
    138, 
    139, 
    140, 
    141, 
    142, 
    143, 
    146, 
    147, 
    148, 
    149, 
    150, 
    151, 
    152, 
    153, 
    156, 
    157, 
    158, 
    159, 
    160, 
    161, 
    162, 
    165, 
    166, 
    167, 
    168, 
    169, 
    170, 
    171, 
    172, 
    173, 
    176, 
    177, 
    178, 
    179, 
    180, 
    181, 
    182, 
    183, 
    186, 
    187, 
    188, 
    189, 
    190, 
    191, 
    192, 
    193, 
    194, 
    197, 
    198, 
    199, 
    200, 
    201, 
    202, 
    203, 
    204, 
    205, 
    206, 
    209, 
    210, 
    211, 
    212, 
    213, 
    214, 
    215, 
    216, 
    219, 
    220, 
    221, 
    222, 
    223, 
    224, 
    225, 
    228, 
    229, 
    230, 
    231, 
    232, 
    233, 
    234, 
    235, 
    236, 
    239, 
    240, 
    241, 
    242, 
    243, 
    244, 
    245, 
    246, 
    249, 
    250, 
    251, 
    252, 
    253, 
    254, 
    255, 
    256, 
    257, 
    260, 
    261, 
    262, 
    263, 
    264, 
    265, 
    266, 
    267, 
    268, 
    269, 
    270, 
    271, 
    272, 
    273, 
    275, 
    276, 
    277, 
    278, 
    280, 
    281, 
    282, 
    286, 
    287, 
    288, 
    289, 
    290, 
    291, 
    292, 
    293, 
    294, 
    295, 
    296, 
    297, 
    298, 
    299, 
    300, 
    301, 
    302, 
    303, 
    304, 
    305, 
    306, 
    307, 
    308, 
    309, 
    310, 
    312, 
    313, 
    314, 
    315, 
    316, 
    317, 
    318, 
    319, 
    320, 
    321, 
    322, 
    323, 
    324, 
    325, 
    326, 
    327, 
    328, 
    329, 
    330, 
    331, 
    332, 
    333, 
    334, 
    335, 
    336, 
    337, 
    338, 
    339, 
    340, 
    341, 
    342, 
    343, 
    344, 
    345, 
    346, 
    347, 
    348, 
    349, 
    350, 
    351, 
    352, 
    353, 
    354, 
    355
  ], 
  "heads": [[231, 0, 0], [225, 0, 0], [296, 0, 0]], 
  "attrs": {"mxnet_version": ["int", 20000]}
}